best_atmosphere_model.pth (torch, 534885 bytes, 10 tensors)

net.0.weight f4 [128, 3]
000000 63 ab c7 3c c6 f4 b5 be 28 bc 18 3e 5f 33 89 bd
       0.024373716 -0.3553831 0.14915526 -0.066992514
000010 8e 51 0e bf 41 f2 5c 3e fe 1c fb 3e 75 3f 22 bf
       -0.5559319 0.21576788 0.49045557 -0.6337808
000020 d2 8d 58 3e 34 f0 6c 3d d0 4b 49 3e 67 e6 35 bd
       0.2114785 0.057846263 0.19657826 -0.044409182
000030 70 26 97 be de 0d b2 3e 2d 75 bf 3d ed 73 06 3f
       -0.29521513 0.34776205 0.093485214 0.5252064
000040 b4 99 cf be 4d 59 13 bf f0 67 f0 be 32 84 0f bf
       -0.40546954 -0.5755814 -0.46954298 -0.5606109
000050 b9 b2 9b be 33 34 68 be 46 d8 29 3f c9 94 ad 3d
       -0.30409792 -0.22676162 0.6634563 0.08475644
000060 53 d3 9f bd 05 bb c2 be c3 5d bb 3e 9c 15 bd be
       -0.07803979 -0.3803331 0.36594972 -0.3693055
000070 88 73 86 bd 14 58 90 3e 6f 98 77 3e 8d 0f 8d 3e
       -0.065650046 0.28192198 0.24179243 0.27550927
000080 15 c4 0e bf 6e ea bc be b7 bb a6 bc ed 5f ba be
       -0.5576795 -0.36897606 -0.020353181 -0.3640131
000090 ce fa 07 3f ad 08 0d bf 4e 0c 07 bf 42 80 8e be
       0.5311707 -0.55091363 -0.5275315 -0.27832228
0000a0 4d 0e c8 3e bd 09 07 3f 27 de d8 3e 56 b7 e1 3e
       0.3907341 0.52749234 0.4235699 0.44085187
0000b0 e9 18 08 3f b7 b4 a1 3e 1e 0e 12 3f ec ff c1 be
       0.5316301 0.31583187 0.5705279 -0.37890565
0000c0 c5 b5 15 3f 09 f7 96 3d 09 57 c3 bc 2e 52 9f be
       0.58480483 0.07371337 -0.023845213 -0.31117386
0000d0 0a 5e c0 3e 5a a3 2f be 67 07 68 be 35 58 d9 be
       0.37571746 -0.17152157 -0.22659074 -0.4245011
0000e0 f9 7d 05 3f f5 59 ff be 10 6e 5a 3e b0 9b ec 3e
       0.52145344 -0.4987332 0.21331048 0.4621253
0000f0 05 3c a2 bd 52 e8 41 be 73 56 87 be 07 9a e2 3e
       -0.07921604 -0.1893628 -0.26433143 0.4425814
000100 d4 56 f3 3e 18 22 14 3f 4e 30 14 3e 56 c7 ba be
       0.47527182 0.5786452 0.14471552 -0.36480206
000110 5a ae 49 3d ed 54 ab bd 28 31 ca 3e 25 15 9a 3c
       0.04923854 -0.08365808 0.39490628 0.01880891
000120 6b 4f 78 3d b6 8e ad 3c 99 60 7b 3e 41 73 f0 be
       0.060622614 0.021186214 0.24548568 -0.46962932
000130 75 d1 1b 3f 15 df cf bc 68 1d 6c be e6 32 e7 be
       0.6086648 -0.025374928 -0.23058093 -0.4515602
000140 55 9d 96 be 99 1d e4 3e 65 76 5d bd 6d 77 f3 bd
       -0.2941691 0.4455383 -0.054067988 -0.11888013
000150 f7 8b f3 3d 8e 82 9f 3d 64 df d7 3e 14 fa 2c 3d
       0.118919306 0.07788573 0.4216262 0.04223068
000160 df 84 f7 be a0 e3 5f be 6b 88 db 3e 7b 23 21 3f
       -0.4834356 -0.21864176 0.42877516 0.62944764
000170 cd 16 f7 3e ad 2e 07 be cc ea b7 be f2 07 6b 3e
       0.48259583 -0.13201399 -0.35921323 0.2295225
000180 93 8f ea bc d4 2d 27 be 90 6d fe be ff 0c b1 3e
       -0.028632915 -0.16326076 -0.49692965 0.34580228
000190 fc 8a 1b bf 92 aa b9 bd 12 ab d8 bd f6 fd 71 3c
       -0.6075895 -0.09065737 -0.10579504 0.014770022
0001a0 e0 a0 b0 be a4 af cc be c3 52 d7 be f0 04 f9 3e
       -0.34497738 -0.39977753 -0.4205533 0.4863658
0001b0 30 c7 37 bd 0e cc d2 be bc c7 ec be 0f cb 04 be
       -0.044867694 -0.41171306 -0.46246135 -0.12968086
0001c0 ca 62 81 be 3e df c3 be 40 22 d6 be 57 74 93 bd
       -0.25270683 -0.38256258 -0.41823006 -0.071999244
0001d0 7b 10 af 3e 78 40 87 be bd 03 e7 3e 63 ca 89 be
       0.3419226 -0.26416373 0.4512004 -0.2691222
0001e0 31 87 a8 3e c0 cf 91 bd e8 ea f8 bd f5 6c 74 3e
       0.32915643 -0.07119703 -0.1215418 0.23869689
0001f0 ef 1c ba bb c1 48 bc 3d 49 ee a7 3e 42 b3 fc be
       -0.0056797187 0.09193564 0.32798985 -0.49355513
000200 c9 5f 8b bd d4 6b 0d bd 06 42 31 bf 00 16 01 3f
       -0.06805379 -0.03452666 -0.6924137 0.50424194
000210 9f a6 08 3f 43 b2 11 3f 38 b9 b7 be db c6 ee 3e
       0.53379244 0.5691263 -0.35883498 0.4663609
000220 ab cf e2 3e 33 e1 cf 3e d5 b3 fb 3e 5a e3 19 3f
       0.44299063 0.406015 0.49160638 0.60112536
000230 0f 05 eb 3e 24 f5 15 be 2b 1c f9 3e 49 06 85 be
       0.45902297 -0.14644295 0.48654303 -0.25981358
000240 23 dd ca be 9a 34 a8 be 4a 17 e6 be 6b ea ab be
       -0.3962184 -0.32852632 -0.44939643 -0.33577284
000250 73 a4 58 be 14 4c 85 3e 4e 7f 87 be 25 31 24 bf
       -0.21156482 0.26034606 -0.26464313 -0.6413749
000260 a3 ce fa 3e ad 7c 9b bd f0 eb 2d bf eb 09 82 3e
       0.48985776 -0.075921394 -0.6793814 0.25398192
000270 0f 0b d1 bd 0a 00 21 3f 0b 7b 5e 3e b9 19 15 bf
       -0.102071874 0.62890685 0.21726625 -0.58242375
000280 f0 e6 97 3d 00 70 b3 3d 61 7f 67 be 13 a6 e3 be
       0.07417095 0.08761597 -0.22607185 -0.44462642
000290 f6 5e df 3e bd 92 aa 3e d2 78 30 bf a8 4a 07 bd
       0.43627137 0.33315077 -0.6893436 -0.033030182
0002a0 7a 4f 81 3e 1d ac 8c bd dc b2 9e be 72 12 a0 be
       0.25255948 -0.068687655 -0.30995834 -0.31264073
0002b0 45 82 63 3e ce 6c 01 3f f0 d6 0f 3b 76 72 26 be
       0.22217663 0.5055665 0.002194818 -0.16254601
0002c0 23 0e 57 be 89 fe 5d 3e 52 30 89 be fc 50 d7 3e
       -0.21001486 0.21679129 -0.26794678 0.42053974
0002d0 ba af 03 bf 11 00 33 bf 9a 3f d2 3e ab 80 24 3e
       -0.5144001 -0.69921976 0.4106415 0.16064708
0002e0 cc 0f 8e bd cf cb 8f 3e a9 80 e7 3e 24 10 67 be
       -0.06936607 0.2808518 0.45215347 -0.22564751
0002f0 8d 0e 05 3f 09 bc f7 3e 0a 49 bd 3e 30 96 1e 3d
       0.5197533 0.48385647 0.36969787 0.03871745
000300 2c 26 96 bc 13 8e 8d be d0 48 ed be c9 cc b9 be
       -0.018328749 -0.27647457 -0.46344614 -0.3628905
000310 82 ae 11 3f 27 fe 15 bf b1 0d 56 3d 41 86 0f bf
       0.569069 -0.5859093 0.05225915 -0.5606423
000320 d6 43 26 3e 59 e7 7e be b6 cd fa be 0c e6 14 bf
       0.16236815 -0.2489294 -0.4898507 -0.58163524
000330 ca 3e ba be 68 5f 4e 3e 6b 8d 3f 3e 13 d2 c9 be
       -0.3637603 0.20153582 0.1870629 -0.39418086
000340 7a da eb 3e 8f 2c 9c be 69 ec ed be ec 20 2e bf
       0.46065122 -0.30502746 -0.4646943 -0.68018985
000350 0c c6 6c 3e d7 02 14 3c bd a1 04 3f 6b 0b c7 be
       0.23122424 0.00903388 0.51809293 -0.388759
000360 fa e3 aa 3c 8f 81 24 3f 6b fe 79 be 57 48 cd be
       0.02086066 0.6426019 -0.24413459 -0.40094253
000370 a6 80 ad 3d 43 bb e6 3e 4e ec 72 be 6d 05 ce 3e
       0.08471803 0.45064744 -0.23722956 0.40238515
000380 56 07 6d be 42 e5 f5 3e b4 13 ec be dc 71 78 be
       -0.2314733 0.48026472 -0.46108782 -0.24262184
000390 44 d0 ee be e8 2d d9 bd 5a b4 ed 3d 6c 76 ba 3e
       -0.4664327 -0.10604459 0.11606665 0.36418474
0003a0 0f 78 b8 3d a5 cf 34 3e fd 3d 05 3f 63 b0 1e bf
       0.09007274 0.17657335 0.5204771 -0.61987895
0003b0 35 49 e5 3e db ac 88 3e 18 31 0a 3f 0d 55 9b 3e
       0.44782415 0.26694378 0.5398116 0.30338326
0003c0 8f 43 07 bf e5 24 11 bf 3d be 0c 3d c1 6d 27 be
       -0.5283746 -0.5669692 0.034361113 -0.16350462
0003d0 a1 f6 1c be 07 c5 13 3f 8f b3 a9 be 69 e3 f2 be
       -0.15328456 0.57722515 -0.33144805 -0.47439125
0003e0 66 60 f0 be a0 5f 0d 3e 1a 97 09 3e 69 65 a0 bb
       -0.46948546 0.1380601 0.13436547 -0.0048949015
0003f0 53 f3 68 bd 8c 6c 6f be d1 ac 98 be 9a 2f 9d 3e
       -0.056872677 -0.23381251 -0.29819348 0.3070038

net.0.bias f4 [128]
000000 06 64 30 3e 1a a0 f0 be 6b 89 c7 be 67 98 cb be
       0.17225656 -0.46997148 -0.3897203 -0.3976471
000010 88 15 11 bf 6f e3 a2 3e a9 cc ec bb 59 28 0c 3f
       -0.5667348 0.31814143 -0.007226546 0.54749066
000020 59 24 2e 3e ef fa 8a be cd b5 7c be e8 80 95 be
       0.17006053 -0.27144572 -0.24678726 -0.2919991
000030 da 1a c7 3e 53 f3 d6 be 35 5d c1 bd 6f 2e d5 be
       0.38887674 -0.41982517 -0.09441606 -0.4163699
000040 41 76 e9 be 31 05 0d bf a0 0c 92 be d2 43 d6 3d
       -0.45598033 -0.55086046 -0.28525257 0.104621544
000050 94 69 04 3f 71 03 6a 3e 36 d0 f7 3e 0c 0b 7d 3e
       0.517236 0.22852875 0.4840104 0.24711245
000060 52 ab a8 be da 3e 09 3f be 3c 03 3f f8 51 06 3f
       -0.32943207 0.5361153 0.5126456 0.52468824
000070 52 48 a9 bd f8 0a 80 3e fc 88 42 be 0a 94 61 bd
       -0.08265747 0.25008368 -0.18997568 -0.05507282
000080 ab a1 0a be 22 40 99 bd 1e 8b 1c be 02 e7 7d bd
       -0.13538234 -0.074829355 -0.15287444 -0.061987884
000090 7e 6f e4 3d 99 09 19 3e 04 16 0d bf e5 a2 a9 3e
       0.11154078 0.14945067 -0.5511172 0.3313209
0000a0 9a 98 fe be 1f 18 b5 bc f1 d2 ba 3e c5 27 fb bd
       -0.497258 -0.022106228 0.3648906 -0.12263445
0000b0 3b af 04 bc c1 bd ab 3e 15 d3 57 3e fa a4 01 bf
       -0.008098419 0.33543208 0.21076615 -0.5064236
0000c0 98 40 07 3f e5 4e f2 3e e0 b6 20 3e 79 f5 2e be
       0.5283294 0.47325817 0.15694761 -0.17085828
0000d0 00 c6 9a 3e 45 7b 2c be 4f a3 0f bf c7 4f be 3e
       0.30229187 -0.16843899 -0.56108564 0.3717024
0000e0 49 fe a2 3e 33 77 aa be 87 d2 26 be 04 b2 7d 3d
       0.3183463 -0.33294067 -0.16291247 0.061937347
0000f0 b0 78 eb be ef bf 0a bf 31 c5 f9 3d a3 ca e4 be
       -0.45990515 -0.5419912 0.121958144 -0.4468585
000100 34 12 00 3f d6 5d af be f6 30 6a 3e 90 eb 70 be
       0.50027776 -0.3425128 0.2287024 -0.2352736
000110 b0 38 a9 be 45 d4 e0 3d ee f9 86 be 83 5d a0 3d
       -0.33051062 0.10977987 -0.26362556 0.07830336
000120 fa f3 92 3e 0d 89 81 bc 7d 56 01 be 33 6d 98 bd
       0.28701764 -0.015812421 -0.12630649 -0.07442703
000130 6a 61 45 3e 01 80 79 bc 30 16 f5 be f8 11 09 3f
       0.19275442 -0.015228272 -0.4786849 0.53543043
000140 c2 cf 1f 3e a9 31 55 be 88 a9 fc 3e 05 5f 3d 3d
       0.15606597 -0.20819725 0.49348092 0.046233196
000150 35 b9 54 be 13 7b e8 3e 99 2f 01 3f fb d0 a1 3d
       -0.20773776 0.45406398 0.50463253 0.07901188
000160 c5 fb a4 be 20 eb 69 bd 91 2f 45 3a 55 9d 1c 3f
       -0.32223335 -0.057109 0.00075220416 0.6117757
000170 cf 60 e7 bd 20 02 cc bd 24 9d ef 3e 2f 63 f5 3e
       -0.11297762 -0.09961343 0.46799576 0.47927234
000180 5e 4c e8 be e4 8c b9 be d8 98 04 bf 0f a1 ad bd
       -0.45370764 -0.36240304 -0.5179572 -0.08477985
000190 87 00 49 bd 6d 0a 55 3e 51 76 7f be 72 51 91 3e
       -0.04907277 0.20804758 -0.24947478 0.2838245
0001a0 94 98 fa 3d 57 4b 4e 3d 7d 9a 0c 3e a5 55 f9 be
       0.12236133 0.05036482 0.13730808 -0.48698154
0001b0 c4 9f 83 3e 6f 8a b8 be ea 36 34 3e bf 4f de be
       0.2570783 -0.36043116 0.17599073 -0.43420216
0001c0 71 26 ab be 3e 4a 04 3f be ea 98 bd 36 dc 57 bd
       -0.33427766 0.51675785 -0.074666485 -0.052700244
0001d0 21 43 8f 3e 4b 7d 80 3c 43 96 de 3e ed 9d ca 3d
       0.27980903 0.015684744 0.43474016 0.09893403
0001e0 5c d7 11 be 0e d6 61 be 72 46 ac 3e 91 1a 5b 3e
       -0.1424231 -0.22054312 0.33647496 0.21396853
0001f0 59 bd 03 bf 5d 60 20 be 0c 08 52 be 0b 8e 07 bf
       -0.51460797 -0.1566176 -0.20510882 -0.52951115

net.2.weight f4 [256, 128]
000000 cd c7 39 3d f3 e1 50 3d c1 41 9a 38 9c 09 86 3d
       0.04535656 0.050996732 7.35554e-05 0.065448016
000010 8d e0 26 bd ad f7 1a 3d 48 62 a7 bd 92 d2 68 3d
       -0.040741492 0.03783386 -0.081730425 0.05684144
000020 f9 93 e8 3c 13 5d d6 bb c5 6c 54 3d 56 57 db bc
       0.028390871 -0.006541857 0.051861543 -0.026775043
000030 d4 c7 5a bb 2d 35 0e 3d a5 d3 90 bc ce 3c 6a bc
       -0.0033383267 0.03471868 -0.017679045 -0.0142967235
000040 7b 94 bd bd a1 89 2f 3d bb 46 91 bd 70 3c a4 3b
       -0.09256836 0.042855863 -0.07093569 0.0050120875
000050 58 00 af 3d a3 ba a7 bd 0c f3 a1 3c 67 dd ab bd
       0.085449874 -0.08189895 0.019769214 -0.083918385
000060 e3 e7 59 bd 2b dc 92 bd ee 6f 33 bd 0f c4 5c 3c
       -0.05319966 -0.071709 -0.043807916 0.013474478
000070 76 b0 b4 bc 81 8d c8 bc 24 4a b0 3c fd 9e e8 bc
       -0.0220568 -0.024481537 0.021519728 -0.028396124
000080 8d 77 0e 3d 57 82 38 3d b0 9b d4 bd 4f d9 78 bc
       0.03478198 0.045046177 -0.103812575 -0.015188529
000090 5d 73 b3 3c 21 55 8e bc 36 4c 22 3d 2a 66 33 3d
       0.021905595 -0.017374577 0.03962346 0.043798603
0000a0 36 6d 0e bd 74 86 8b 3d ed 6c b4 bd 98 70 27 3d
       -0.03477212 0.06812754 -0.088098384 0.040878862
0000b0 25 f1 b2 3d 6f 87 0f 3b 80 a7 bd bd 84 1f 83 bd
       0.08737401 0.0021900793 -0.09260464 -0.064024955
0000c0 a0 e5 9d 3d 2d 37 c4 bc 0f 4c 36 bd 0b 81 80 3d
       0.07709813 -0.023952091 -0.04450613 0.06274613
0000d0 ac b0 40 3d ef ed df 3d 69 84 8c 3d 42 3f de ba
       0.047043487 0.10934054 0.06861193 -0.0016956108
0000e0 ee 0f 52 3d a3 26 2b bd c8 c4 23 bd 7a 08 8b bd
       0.051284723 -0.041784894 -0.039982587 -0.06788726
0000f0 44 43 8a 3d 56 36 7f 3d 74 4b c1 3c 3c 00 a7 bd
       0.06751111 0.06230768 0.02359555 -0.081543416
000100 c4 e1 b5 3d 53 fd 4e 3d 8c c5 e4 bc 6d 74 2c 3d
       0.08880952 0.050534558 -0.027926229 0.04210322
000110 dd 4d 5f 3d 2e f1 6b 3d b3 b9 dc bc 1f 60 91 3a
       0.054517616 0.057603054 -0.026944017 0.0011091268
000120 0d ab 9b 3d 57 ac a9 3d 70 e9 24 bb f6 e8 91 bd
       0.07600985 0.08284824 -0.0025163554 -0.07124512
000130 be 11 0f bd a8 0f f0 3c 84 47 ec bd f1 96 b3 bc
       -0.03492903 0.02930434 -0.11537078 -0.02192256
000140 5b 78 c4 3c 5f 25 b4 3d ba 66 22 3c a8 0c 56 3d
       0.023983171 0.087961905 0.009912187 0.052258164
000150 c4 a4 ec 3c e5 a1 4b 3c 3a 4a d7 bc ce cc 42 3d
       0.02888716 0.012428735 -0.026280511 0.0475586
000160 bf 64 94 bd 83 76 75 bd a3 9e 4a bd ac 60 be bd
       -0.07245778 -0.059927475 -0.049467694 -0.092957824
000170 44 91 f2 3c 58 d6 4c 39 e2 c2 f1 3c 17 e4 c7 bb
       0.029610284 0.00019534805 0.029511873 -0.0061001885
000180 c8 0a 6c bd 82 1c 00 3d c7 2d ce 3d 56 0a c0 3d
       -0.05762747 0.031277187 0.10067325 0.093769714
000190 81 c2 54 3d 22 c7 53 bd ea 71 ab 3d 9a db 43 3d
       0.051943306 -0.05170358 0.08371337 0.04781685
0001a0 74 e3 a7 bc 74 00 64 bd b7 92 5e 3d 95 78 a0 3c
       -0.0204942 -0.055664495 0.054339137 0.019588748
0001b0 bb 57 72 3d 94 b8 1e 3d fe 49 6c bd b8 0c de bd
       0.059165698 0.038750246 -0.057687752 -0.1084227
0001c0 f6 57 a6 3d 10 17 1e 3c 71 1c d6 bb 11 10 4f 3d
       0.08122246 0.009649053 -0.006534152 0.05055243
0001d0 bd 42 e0 3c 8e 39 3b 3d be 68 b5 bd a8 ee 78 3d
       0.027375573 0.045709185 -0.088578686 0.060774475
0001e0 4a b5 c4 bd 07 41 ef bd a7 6f a4 bd 0e f1 0f bd
       -0.09604891 -0.11682325 -0.080291085 -0.035141997
0001f0 d5 5d 20 3d 05 9d 08 be 3c 7b cf bd 31 e2 63 bd
       0.039151985 -0.13341148 -0.10130927 -0.055635635
000200 f1 3f 54 bc cc 14 1d 3d c3 d7 4d bc ba 8a 2c bd
       -0.012954698 0.03834991 -0.012563649 -0.042124487
000210 03 76 fa bc b8 1e f3 bc 6e 79 bc bc 7c f4 84 3d
       -0.03057385 -0.029677734 -0.023007121 0.06491944
000220 b6 e3 4c bd e9 f6 87 3d af 26 1b 3d 8a 67 54 bd
       -0.05002185 0.06638891 0.03787869 -0.051856555
000230 0f 28 3e b9 8b 57 1f bd cf ea 86 bb c0 8d 96 3d
       -0.00018134735 -0.038901847 -0.004117347 0.073512554
000240 63 86 8c 3d 83 a9 87 bd 46 e2 8a bd 74 67 89 bd
       0.0686157 -0.06624129 -0.067814395 -0.06709185
000250 68 71 a4 3d df 77 92 bd f4 63 3a bd b7 55 a0 bd
       0.08029443 -0.0715177 -0.04550548 -0.07828849
000260 1b 1d 85 3d 64 8f 95 bd 98 84 b2 bd 1d 8f a6 bd
       0.06499692 -0.0730274 -0.087166965 -0.081327654
000270 4c 00 44 3b ad 51 30 bd af 2e 47 3d 5a 3e 2e bd
       0.0029907404 -0.043046642 0.048628505 -0.04253993
000280 06 96 3a 3d ca 8f 9f 3b 5f b7 7f 3d 99 c6 8b bd
       0.04555323 0.004869436 0.062430736 -0.06824989
000290 3f 92 42 bd a5 fc 9e bd e4 21 90 3d e6 35 eb bc
       -0.047502752 -0.07763032 0.07037714 -0.028712224
0002a0 d4 1a 15 3d 17 f9 24 3d 92 1d a3 3c 12 29 d4 bc
       0.03640254 0.040276613 0.019911561 -0.02589849
0002b0 93 b7 1d bc 0d 9f ad bd 5e 35 54 bd 8a 92 e9 3c
       -0.009626287 -0.08477602 -0.051808707 0.028512258
0002c0 67 c2 9d bb ae 86 b1 bd c1 66 1d bd 20 84 a3 bd
       -0.0048144343 -0.08668266 -0.038428072 -0.07984185
0002d0 0b f3 2b 3d 9f ab 36 3b 76 02 83 3d 54 de 4c 3d
       0.04197983 0.002787329 0.06396954 0.050016716
0002e0 a7 6f 68 bd c6 05 4b 3d 21 bd 63 bb 2b 25 96 3d
       -0.056747105 0.049566053 -0.003475018 0.07331308
0002f0 c4 72 c7 ba 3c ad 75 3d 66 4d 1b 3d c1 1d a4 3d
       -0.0015216698 0.059979662 0.03791561 0.080134876
000300 7c 8f b0 3d a5 7f 74 bd d4 c5 a1 3c 40 ba 73 bd
       0.086211175 -0.059692044 0.019747652 -0.059503794
000310 93 43 35 bd 6d 88 a0 3c 5b 03 a5 bb 2b 0c 84 bd
       -0.044253897 0.019596303 -0.0050358004 -0.06447633
000320 49 51 4c 3d 84 55 b3 bd 01 6f b7 bc fd 44 e7 3c
       0.049882207 -0.08756545 -0.022391798 0.028231138
000330 75 a9 a4 3d b1 ac eb 3c 67 94 b2 bd 27 1d a3 bc
       0.08040134 0.02876887 -0.08719712 -0.019911362
000340 1b fb 90 bc 7b f2 37 3d 74 37 ab bd 07 f3 54 3d
       -0.017697861 0.04490898 -0.08360186 0.05198958
000350 e1 85 ab 3d 0f 75 c4 3b bc 73 bb bc 45 c4 8c bd
       0.08375145 0.0059954 -0.022882335 -0.06873373
000360 fa 0c 71 3d ea 8a 69 bd 75 a4 f6 bc 99 65 8e bd
       0.058850266 -0.057017244 -0.030107716 -0.06952972
000370 5e 9b 45 bd 5d 4f 8d 3d 1e 08 d5 bc 5a 12 33 bc
       -0.048243873 0.06899903 -0.026004847 -0.010929668
000380 76 3e 2c 3d ca f6 9c bd 2a 1b a7 bb 22 7f 14 3d
       0.042051755 -0.07664259 -0.0050996738 0.036254056
000390 23 a8 c6 bc 74 eb b4 3d 69 9d 83 bd 7d 94 29 bd
       -0.024250096 0.088339716 -0.06426508 -0.041401375
0003a0 26 b9 2d bd 15 30 0b bc fa 6d 6c 3d 98 fa ae 3c
       -0.0424129 -0.00849535 0.05772207 0.021359727
0003b0 a6 2a b9 3c 93 11 3e bd c7 6d b3 3d aa 50 33 ba
       0.022603344 -0.04640348 0.08761173 -0.0006840328
0003c0 e4 8b 64 3d 8b 1e 8b bd 23 f7 2a 3d 3f 19 11 bc
       0.055797473 -0.06792935 0.041739594 -0.008856117
0003d0 c3 77 8b 3d 3e da 72 3a 0e e1 8e bd 74 a1 4e bd
       0.06809952 0.0009264088 -0.069765195 -0.050446942
0003e0 9e ea 82 bd 66 42 a9 bd fd 36 48 bb 1b 9b d1 bc
       -0.06392406 -0.082646176 -0.0030550354 -0.025586655
0003f0 c1 88 90 3d 4b 10 a7 3c d5 75 6e bd c6 ba 9e bd
       0.07057334 0.020393511 -0.058217842 -0.07750468

net.2.bias f4 [256]
000000 82 4f f7 3c 9f ec 92 bd cb 79 98 bd e9 17 6d bd
       0.03018928 -0.07174038 -0.07445105 -0.05788413
000010 54 07 2a 3d c9 5d ad bd 82 53 77 bd ef 67 b8 3c
       0.041510895 -0.08465154 -0.060382374 0.022510497
000020 d5 04 d8 3b 0a 25 8e 3d ab be e3 ba 3e cf 3e 3d
       0.006592373 0.069406584 -0.0017375549 0.04658436
000030 5c c1 be 3c ab 05 ba bc 4e da ae 3c 7a 6e ba bd
       0.02328556 -0.02270778 0.02134433 -0.09103103
000040 90 02 a1 3c 58 80 80 3b 76 dc 7b 3d ef 16 00 bb
       0.019654542 0.00392155 0.061489545 -0.001954492
000050 38 07 0c 3d 9c 2e 29 bc ea f5 4b 3d a0 02 75 bd
       0.03418657 -0.010326054 0.04979507 -0.059816957
000060 13 62 8b 3d a8 2a ac 3d 5b e1 13 bd 65 cf 3f 3d
       0.068058155 0.084065735 -0.036103588 0.046828646
000070 41 22 eb 3c 43 de 16 bc 0a 72 93 3d ad 6b ba 3d
       0.028702857 -0.009208265 0.071994856 0.09102569
000080 fb 4d 78 3d 8f a3 2c bd 6e 57 96 bc b3 1b 82 bd
       0.060621243 -0.04214817 -0.018352237 -0.063529395
000090 1a 80 b3 3c a8 d3 56 3d 47 27 49 bd 6c 5d 0e 3c
       0.02191167 0.052447945 -0.049109723 0.008689266
0000a0 20 98 09 bd 2c 23 ac 3d 7d 63 4f 3d 44 74 90 3d
       -0.033592343 0.08405146 0.05063199 0.07053426
0000b0 fb ae ef bc 84 f7 cb 3c ec 34 61 3c 76 5a 6f bd
       -0.029258242 0.024898298 0.013745528 -0.05843588
0000c0 45 32 07 3c e8 45 97 3d b6 ea 5f 3d 39 93 a1 bc
       0.008251731 0.073863804 0.054667197 -0.019723522
0000d0 7b 3b 4a bd 18 00 90 3c d7 d0 0a bd d9 20 a6 bd
       -0.04937313 0.01757817 -0.03389057 -0.08111734
0000e0 61 72 06 bd 69 e5 8d 3d 2c 9b 2a 3d 3a 3a 98 bd
       -0.032823924 0.06928522 0.04165189 -0.07432981
0000f0 71 40 02 bd 09 87 7d 3d 23 7d 52 bd d2 8d 8e bd
       -0.031799737 0.061896358 -0.05138887 -0.06960644
000100 f8 fe 39 3d 1a c9 f2 3c 52 fa 0c bd d8 25 97 3d
       0.045409173 0.029636908 -0.03441841 0.07380265
000110 54 57 93 3d 17 82 93 bd 36 54 8e 3d 36 11 51 bd
       0.07194391 -0.07202547 0.06949656 -0.051041804
000120 07 62 70 bc 7d b3 2b b9 d6 fe 5a bd 98 cb aa bb
       -0.014671809 -0.00016374695 -0.053465687 -0.0052122585
000130 dd a4 91 bd 58 94 84 3d e5 c0 0b 3d 14 3a 94 bd
       -0.07111523 0.06473607 0.034119505 -0.0723764
000140 5e 1c 84 bd ac 12 2e 3d a9 6f 2c 3d 70 c7 bb 3b
       -0.06450723 0.042498276 0.042098675 0.005730562
000150 e4 60 89 bd 12 e5 4c 3d 35 0f 37 bd c5 a1 5a bd
       -0.067079335 0.050023146 -0.044692237 -0.05337693
000160 3b 30 64 bd 0d c7 41 bd 45 1c dd bc 9c 32 4a bc
       -0.05571006 -0.04730897 -0.026991019 -0.012341168
000170 9a 3d 0e 3b 63 96 60 bd 97 5d 71 3d 7f f1 fd 3b
       0.0021704198 -0.05483092 0.058927145 0.007749736
000180 1e 40 58 bd 08 92 0c bd 64 b2 81 bc f0 67 7e 3c
       -0.052795522 -0.034318954 -0.015832134 0.01552771
000190 f1 15 87 3a dc 6b 99 bc 88 6b 19 3d 3f 95 a3 3d
       0.0010306222 -0.01872819 0.037456065 0.07987451
0001a0 d5 cf 88 3d 74 dd a6 bd 33 83 da 3c 4c ac 27 bd
       0.06680266 -0.081477076 0.026673889 -0.0409358
0001b0 17 e2 bd bb 64 b0 57 3d 21 ba 76 bd 79 69 68 3d
       -0.0057947743 0.052658454 -0.0602361 0.05674121
0001c0 b4 4b 82 3d 90 26 49 bd 0e db e1 3c eb 54 28 bd
       0.063620955 -0.04910904 0.027570274 -0.04109661
0001d0 a4 dd 64 bd 85 27 8a bc eb ef 03 3d ea af aa 3d
       -0.055875435 -0.016864548 0.032211225 0.08334334
0001e0 d7 0f 0d bd 87 f9 1f 3d 48 68 76 bc 1f ce ce bc
       -0.034438934 0.039056327 -0.015039511 -0.02524477
0001f0 30 8e 38 3d b3 c8 99 bc 08 31 e6 bc 3f f5 0b 3d
       0.045057476 -0.018772459 -0.028099552 0.03416943
000200 a1 ea eb bc 6f 79 2d bd e4 03 51 bd de 18 6f bc
       -0.028798403 -0.042352136 -0.0510291 -0.014593331
000210 ba 55 c9 bd f1 10 8f 3b 3c 84 4e bd 70 b6 59 bd
       -0.09830804 0.0043660332 -0.050419077 -0.0531525
000220 8c 56 8e 3d 12 29 32 3d 35 5c 84 bd 95 d6 2f 3c
       0.06950101 0.0434962 -0.064628996 0.010732313
000230 cb 48 4b 3d ee 17 86 bc 2b 7f 78 3d 96 a4 ba b8
       0.049629968 -0.016368832 0.06066815 -8.899828e-05
000240 3c 99 7e 3d 28 47 45 bc df b4 0a bd 9b e3 b2 bd
       0.062157854 -0.012040891 -0.0338639 -0.087348185
000250 35 d9 45 bd de e9 b0 3c 8e 1e 4f 3d 33 0a 83 bc
       -0.048302848 0.021595892 0.05056625 -0.015996074
000260 b7 b0 b3 bd ae 64 b4 3c e9 5c 4e bd 0c 4e 37 3c
       -0.0877394 0.022020664 -0.050381575 0.011188041
000270 91 88 30 3d 3c 08 db 3c a6 99 97 bd b1 18 cf bb
       0.04309899 0.026737325 -0.07402353 -0.006320082
000280 76 07 9f bd 2f 36 4e bc 0b f1 8a 3c b7 a8 da 3c
       -0.07765095 -0.012586161 0.016960641 0.026691778
000290 47 34 c8 3c 1c a5 c0 bc 14 23 40 3d 81 da 44 bd
       0.02443899 -0.02351623 0.046908453 -0.048059944
0002a0 ed 84 83 3d 6a c4 6b 3d 50 19 ba 3d 27 e1 3c 3c
       0.06421838 0.057560362 0.09086859 0.01152829
0002b0 d0 0f 48 3d 16 a4 91 bd d6 5b 73 bd ec 93 1f bd
       0.048843205 -0.07111375 -0.059413753 -0.03895943
0002c0 6f da f3 bb 58 51 b0 bb b9 50 d6 bc 79 0b 12 3c
       -0.007441811 -0.0053807907 -0.026161538 0.008913868
0002d0 74 16 90 3d 68 8a 1c bd 54 84 03 3d 51 f8 a1 3d
       0.070355326 -0.038217932 0.03210862 0.07908691
0002e0 e6 ec 95 bc a3 00 54 3d 51 04 6c 3d 91 78 a3 bc
       -0.018301439 0.05175842 0.057621304 -0.019954951
0002f0 ae 27 91 bd 40 82 41 bc 9f 7c 9d bd 19 60 31 bd
       -0.070876464 -0.011810839 -0.07689785 -0.043304536
000300 d7 b7 a1 3d 84 6d 0a 3d 1e e9 5a 3d 77 62 8d bc
       0.07896393 0.03379585 0.053444974 -0.017258866
000310 c9 1b a1 bc 34 8a 80 3d 2e 25 99 bc e3 63 ad 3d
       -0.01966657 0.0627636 -0.018694486 0.084663175
000320 01 b2 48 bd f7 40 0a 3d e1 8c 3c 3d 82 75 5a bc
       -0.048997883 0.03375336 0.04603279 -0.01333368
000330 ee f2 9e 3d f9 ad 81 bd f1 37 88 3d eb e1 90 3d
       0.07761179 -0.06332011 0.06651295 0.070743404
000340 5d 80 65 3c fc 98 3d bb 1a fb 71 3c 0e e3 10 bc
       0.014007655 -0.0028930297 0.01476934 -0.008843197
000350 c9 88 56 bd 5b 95 a4 3d 28 78 70 bd a9 86 af 3d
       -0.052376542 0.080363 -0.05870834 0.08570606
000360 2e 5c 00 bd 8b 8e be 3c 8c 54 96 bd 4e 86 7a 3d
       -0.03133791 0.02326133 -0.07340345 0.06116324
000370 e6 e3 ae bc 84 a7 be bd 4b 4a db bc 3a fe 0c 3d
       -0.021348905 -0.09309295 -0.026768824 0.034422137
000380 d4 0f 3d bc ae e0 9c bd 84 89 a8 3d c6 7d 88 3d
       -0.011539418 -0.07660042 0.08229354 0.066646144
000390 2a b6 b5 bd ae df 89 3d d0 aa 4e 3d b2 50 e3 3c
       -0.08872636 0.06732117 0.05045587 0.02774844
0003a0 1e 45 49 bd db 76 c5 3b f4 f0 21 bc 12 a9 47 bc
       -0.04913818 0.0060261316 -0.009884108 -0.012186306
0003b0 e6 d1 06 bd 36 1b 74 bc 7e cf 1c 39 bc 1c 08 b8
       -0.03291502 -0.014899066 0.00014954616 -3.2451688e-05
0003c0 72 04 2d 3d 05 7c 3f bc a1 c1 37 3c 9a 61 65 bc
       0.042240568 -0.011687283 0.011215598 -0.014000321
0003d0 65 3d a1 bd 86 8f 8f 3d 28 a2 a9 3d 65 68 7c bd
       -0.07873038 0.07009797 0.08282882 -0.061622996
0003e0 54 f7 55 bd e0 d2 8e 3d 6a 55 01 3c 8f 39 00 bb
       -0.052237824 0.06973815 0.007893899 -0.0019565558
0003f0 5c e4 97 3d cb 5c 8b 3d 0f 74 30 3d 0e 8e a5 3d
       0.07416603 0.06804808 0.043079432 0.080837354

net.4.weight f4 [256, 256]
000000 16 cb 58 bd 0c 6f 60 3d 3c ec 31 bd d0 19 83 3b
       -0.052928053 0.054793403 -0.04343818 0.00400088
000010 8a 6e c5 3c 72 85 52 bd a6 b2 49 bd 28 83 6f 3c
       0.02410056 -0.051396795 -0.049242638 0.014618672
000020 1e 62 1c 3d b9 9a e6 bc 50 41 2a bd 49 70 2a 3d
       0.03817951 -0.02814995 -0.041566193 0.04161099
000030 20 a7 0e bd 2c 6e f8 bc a0 b1 66 bc 32 3b 73 bd
       -0.03482735 -0.030325972 -0.014080435 -0.059382625
000040 69 b5 29 3d 34 31 5a bd 3d da 4a 3d 7f 15 29 3d
       0.04143277 -0.05326958 0.049524534 0.041280266
000050 95 f3 e0 bc 50 c8 30 3d 66 a1 02 3d 34 34 a1 3c
       -0.027459899 0.043159783 0.031892203 0.019678213
000060 e9 82 b6 bc 02 60 45 bd 2a ee d9 bc 66 04 3b 3d
       -0.02227922 -0.048187263 -0.026602823 0.04565849
000070 4c d0 4e 3d 17 98 71 bd f6 fe 2e 3d 14 f9 8a 3c
       0.050491616 -0.058982935 0.04272362 0.016964473
000080 86 e6 13 3d 7a cb 60 bd f0 92 6c bc 92 6f 53 3d
       0.036108516 -0.05488155 -0.0144393295 0.051620074
000090 cc 7d f5 3c ba 4f 5c bd 10 8c 8f 3b ec d9 5f 3d
       0.029967211 -0.05378697 0.0043807104 0.054651186
0000a0 64 f5 e0 3c 3c b9 ab 3c 53 b4 d5 bc 0a 8b 7f bd
       0.027460761 0.02096235 -0.026086962 -0.062388457
0000b0 78 43 75 3c d1 24 99 bc 01 74 2c 3d 9f 56 57 bd
       0.014969699 -0.018694313 0.042102817 -0.052572843
0000c0 5a 2c 22 bb b4 64 88 bd 28 51 48 bd df be 61 bc
       -0.0024745674 -0.066598326 -0.04890552 -0.013778417
0000d0 20 5a dd bc 71 2e 1a 3d 90 ec 37 bd 36 f4 0a bd
       -0.027020514 0.037641946 -0.044903338 -0.033924304
0000e0 f4 1d 71 bd 44 ca 40 bd 83 a1 78 bd 40 82 86 ba
       -0.058866456 -0.047067896 -0.060700905 -0.0010262206
0000f0 f0 58 53 bc 20 6f 8d bc 38 97 fb bc 72 4f 34 bd
       -0.012899622 -0.017264903 -0.030711755 -0.044021077
000100 6c e3 0f bd f7 99 18 3d 49 18 14 bd 2b a5 ab bc
       -0.035128996 0.037256207 -0.036155973 -0.020952782
000110 58 8e 01 bd d0 cd f8 bb 9e d1 b9 3c 5c 85 52 bd
       -0.03162989 -0.007592894 0.022682961 -0.051396713
000120 30 d7 ec bb 2c 5a 34 bc b4 45 ba 3b ac 87 dd 3c
       -0.007227801 -0.011007827 0.005684579 0.027042232
000130 a8 08 94 3c 04 e8 76 bd 85 ed 45 3d f0 a4 c0 3b
       0.018070534 -0.06027986 0.04832222 0.005879037
000140 88 a4 76 bd 36 84 01 bd 5b a4 46 3d 26 64 e0 bb
       -0.060215503 -0.031620227 0.048496585 -0.006847876
000150 5c 4c bc 3c cc 32 e1 3c c8 bb b7 3c d0 d6 92 bc
       0.02298563 0.027490042 0.022428408 -0.017924696
000160 92 92 15 bd 30 57 9c 3b 55 e9 0f bd f0 8f 2f 3d
       -0.036516733 0.0047711357 -0.035134632 0.04286188
000170 1c cc 02 3d cb 37 06 bc e4 d5 56 3d 33 85 a5 3c
       0.031932935 -0.008192013 0.052450076 0.020205116
000180 00 76 3a bd ae b9 1a 3d 12 c2 15 3d 20 e1 19 3d
       -0.04552269 0.037774734 0.036562033 0.03756821
000190 d9 db 5f bc 06 c5 be bc bc f7 21 bd fb 7e 3d bd
       -0.013663256 -0.023287307 -0.0395429 -0.046263676
0001a0 21 89 9f 3b e5 78 81 3c f4 01 d4 3c e8 7e 74 bd
       0.004868642 0.015804717 0.025879838 -0.05969134
0001b0 7e 13 8a bb 62 69 3a bd 00 43 e6 39 36 bb 5a 3d
       -0.0042137494 -0.045510657 0.00043918937 0.053401195
0001c0 bb 36 35 3c a3 fb 0a bd 83 e5 b5 3b bf c1 77 bd
       0.011060412 -0.033931386 0.0055510416 -0.060487505
0001d0 38 e1 87 bc 91 5e 3e 3c c1 62 81 3c 70 f8 99 3c
       -0.016586885 0.011619226 0.01579416 0.018795222
0001e0 f0 96 2f 3d 69 3b 5b 3d 8e 83 f1 bc 77 f3 0a bd
       0.042868555 0.053523455 -0.029481675 -0.033923592
0001f0 c6 41 56 bc fb 8d b6 3b 97 dc 34 3c 70 34 a1 3b
       -0.013077205 0.0055711246 0.011038921 0.004919581
000200 b0 14 0d 3d 70 fb c6 3c 36 f2 2e 3d 10 6b 10 bd
       0.034443557 0.024289817 0.04271146 -0.035258353
000210 c1 ad 8a bd 19 82 40 bd 00 83 0e bd 3c 2a 7c bd
       -0.06771422 -0.04699907 -0.0347929 -0.061563715
000220 43 3e c5 bc df 0b 22 bd 3a d9 88 bd ef 47 ab bc
       -0.02407754 -0.039562102 -0.06682058 -0.020908324
000230 f6 2f 4b bc b0 51 35 3d 4e cd 44 bd 38 57 85 3c
       -0.0124015715 0.044267356 -0.048047356 0.01627694
000240 93 14 2c bc 8a 3f 58 3d 67 cc 3a bd 8c ff 5c bd
       -0.010502952 0.05279497 -0.04560509 -0.053954646
000250 93 a3 5a 3d 16 b4 55 3d 84 e2 9e 3c 9e 67 4f bd
       0.053378653 0.052173696 0.01939512 -0.050635926
000260 70 b7 f4 3b 26 e4 4f bd 79 0f 74 ba ee 10 8a bd
       0.0074681565 -0.05075469 -0.0009310167 -0.0674151
000270 80 ca 2c ba b4 63 ee bc 9c 94 bc bc 23 74 83 bc
       -0.0006591454 -0.029100277 -0.023020081 -0.01604659
000280 f0 8f 9d 3b be 30 5a 3d bc 63 17 bd 1a 63 3c 3d
       0.0048084185 0.05326914 -0.03696035 0.045992948
000290 fc dc f6 bc 38 5e cb bc f8 2f 18 3c 10 eb 99 3c
       -0.03013467 -0.0248252 0.00928878 0.018788844
0002a0 80 b5 2d 3d e8 3b 9d bc 91 5c 21 3d 90 f1 e0 bb
       0.04240942 -0.019193605 0.03939492 -0.006864734
0002b0 5b 79 5c bd 74 2a 2c 3d 7c ed 39 3d f6 20 00 3d
       -0.05382667 0.042032674 0.0453925 0.031281434
0002c0 ac 8d 18 3d ff 20 67 3b 93 fb 85 bd 51 50 c4 bc
       0.037244484 0.003526747 -0.065421246 -0.02396408
0002d0 fb 9a 8d bc 61 a1 26 3d e5 82 23 bc 7c 29 ec bc
       -0.017285815 0.040681247 -0.009979938 -0.028828375
0002e0 c8 96 84 bc b0 1a 6c bd 36 2b d0 bc 60 f9 19 bb
       -0.01618518 -0.05764264 -0.02541123 -0.0023494586
0002f0 e8 70 7b 3c 8b 67 ed 3c c3 ff 0a 3d 00 03 9d 39
       0.015346743 0.028980037 0.03393532 0.0002994761
000300 9d 44 01 3d a8 b4 00 3d cd 3a d1 bc a3 7c be bc
       0.031559575 0.031422287 -0.025540734 -0.02325279
000310 94 76 7b bd 2c 52 37 bd 40 b8 10 bb c3 0a 86 bd
       -0.06139238 -0.0447561 -0.0022082478 -0.065450214
000320 48 30 31 bd 25 71 7d bd aa 1d 20 bd 6a 05 32 bd
       -0.043258935 -0.06187548 -0.03909079 -0.043462195
000330 10 15 d9 bb e8 74 b7 3c d3 05 f1 bc 20 ad 43 3b
       -0.0066248253 0.022394612 -0.029421723 0.002985783
000340 df 9a b6 3c 3c 28 67 3d 3e 67 2e bd 6e 9a 39 3d
       0.022290645 0.056434855 -0.04257893 0.04531329
000350 0a d9 4b 3d 25 73 1c bd 2c 70 e2 bb 54 5c 42 bd
       0.04976753 -0.038195748 -0.0069103446 -0.047451332
000360 a4 b8 71 bd 86 4d 3a 3d d4 ce b1 bc 20 37 84 3c
       -0.059013978 0.04548409 -0.021705069 0.016139567
000370 c4 dd 6c bd 78 ca 6f bc b8 3e f4 3c d8 74 2f 3c
       -0.05782868 -0.014635675 0.029815063 0.01070901
000380 98 ac 28 bd a0 b1 49 3b e7 13 8d 3c 8a 9f 88 3c
       -0.041180223 0.0030776039 0.017221404 0.016677637
000390 28 b5 0c 3d 5e fb 72 bd 81 bf d1 3c f0 22 8a 3c
       0.03435245 -0.059321754 0.025604011 0.016862363
0003a0 51 74 53 3d 90 3e 81 bd b3 b1 11 bd e0 67 ce 3b
       0.0516246 -0.06310761 -0.035569858 0.006299004
0003b0 c2 e3 5f 3d 8e 6a 25 bd ce 04 4d bd 36 ff 2d 3d
       0.054660566 -0.04038482 -0.05005341 0.042479716
0003c0 c9 2d 17 3c 8c 5a 22 bd 24 6a 9c bc 6b 3b 8c bd
       0.009227225 -0.039637133 -0.01909358 -0.068472706
0003d0 17 62 5a 3d 7b 64 c2 bc 4b 12 96 bc 76 74 24 3d
       0.053316202 -0.023729553 -0.01831927 0.04015013
0003e0 ec 2d 84 bc be 14 8c bd 4b ab d4 3c 64 4b 81 bc
       -0.016135179 -0.06839894 0.025960585 -0.01578302
0003f0 68 f5 22 bd 7c 7f 37 3d 64 e2 ab bc df 88 4f 3d
       -0.03978482 0.044799313 -0.020981975 0.05066764

net.4.bias f4 [256]
000000 72 b9 81 bd 18 90 df 3a 66 4c c2 3c 00 60 fa 3b
       -0.06334199 0.0017056493 0.02371807 0.0076408386
000010 d0 50 c2 bc e9 1d fb bc 2c d0 d7 3c 0f d5 17 bd
       -0.023720175 -0.03065391 0.026344381 -0.037068423
000020 28 63 14 3c e8 5b dc b9 6e 18 f6 bc 47 07 5f 3d
       0.009056844 -0.00042030145 -0.030040946 0.0544503
000030 b2 38 64 3b 7d fb 60 bd b1 eb 0d 3d 98 7d 62 bd
       0.0034823832 -0.054927338 0.0346486 -0.055295557
000040 2f d8 2c 3d 8e 3e 77 bc 3c a7 b3 3c 6c e9 ff bc
       0.042198356 -0.015090598 0.02193033 -0.031239234
000050 d1 aa 62 3d 7b 86 f6 ba ff d2 31 3c 60 dd c9 bc
       0.055338684 -0.0018808389 0.010853528 -0.024641693
000060 a6 37 62 3c 22 4d 37 bc 4f 6e 89 3c 00 55 e0 bc
       0.013807213 -0.0111878235 0.016776232 -0.027384281
000070 58 e9 08 bb e1 a3 75 3d 99 94 2b 3c 6b 03 b2 3c
       -0.0020891037 0.05997074 0.01047244 0.021730145
000080 64 78 36 3d 66 77 73 3d 43 55 ce bc 5d 25 82 bd
       0.044548407 0.05944004 -0.02518714 -0.06354783
000090 42 e0 e5 3b 1a 1b b3 bb 72 38 33 3a 23 97 d6 bc
       0.007015259 -0.0054658772 0.0006836719 -0.026195114
0000a0 35 5f 7c 3d d1 b6 61 bc 21 32 06 bc 7f e6 43 bc
       0.061614234 -0.013776497 -0.008190663 -0.01195681
0000b0 46 94 88 bd f5 5d 64 3c 53 5d 6f 3d 11 8c 9c bc
       -0.06668906 0.013938417 0.05843861 -0.019109758
0000c0 ce ae 75 bc b8 77 9e 3c 0c 19 a6 bb d7 0d 8c bd
       -0.01499529 0.019344196 -0.005068904 -0.06838577
0000d0 f6 30 68 bd 9e 09 0e bd ef 91 8c 3d b1 c7 bd bc
       -0.056687318 -0.03467714 0.06863772 -0.02316651
0000e0 08 a2 e6 3c c1 a6 28 bd 3c 7f 13 bc 5d 6f 29 bd
       0.028153434 -0.041174654 -0.009002503 -0.04136597
0000f0 e3 57 4e bd a0 5e df 3c e7 b4 58 3d 4d 62 68 3d
       -0.050376784 0.0272668 0.052906897 0.056734372
000100 94 4c 29 bd 60 d4 31 bd 1c 63 4b 3d f4 5b a4 3c
       -0.041332796 -0.043415427 0.049655065 0.020063378
000110 87 41 f0 bb 6d c4 3b bd 78 a1 8b bc 1b fc 45 3b
       -0.00733203 -0.045841623 -0.017044768 0.003021008
000120 f3 71 36 3d 62 1f f5 bb a7 21 4d bc 6a 08 ef bc
       0.044542264 -0.0074805478 -0.01252023 -0.029178817
000130 d5 ff 9e 3c 68 85 24 3d b2 ab d4 3c 12 c0 dd 3c
       0.0194091 0.04016629 0.025960777 0.027069125
000140 dd f6 39 bc 51 d2 27 3d 78 72 f7 bc 6c 4d ff bc
       -0.011350361 0.040972058 -0.03020595 -0.031164847
000150 0b 70 56 3c 68 12 bb 3c 5a f8 4d bd e9 40 6c bd
       0.013088237 0.022835925 -0.050285675 -0.05767909
000160 65 19 47 bb 95 ba 7c bd 69 74 4e 3d d8 97 13 3d
       -0.0030380127 -0.061701376 0.050403986 0.03603348
000170 a4 d7 4c 3d ec a3 7b bc 7d 73 71 3d c1 37 ee bc
       0.05001034 -0.015358906 0.05894803 -0.02907932
000180 4f 4b 39 3c 11 5f 8b bd 77 7d 40 3d 00 a8 f5 3c
       0.011309459 -0.06805242 0.046994653 0.029987335
000190 48 52 ca bc ac f6 e4 3c 0f 45 63 bd be 39 87 bc
       -0.024697438 0.027949654 -0.05548578 -0.016507026
0001a0 4e a7 5e bd 40 c5 fc 3c ea 52 51 3d 4e fb f9 3c
       -0.054358773 0.030855775 0.051104464 0.03051534
0001b0 2a da 81 bd 38 84 1c bd ff 7c 98 bb 59 81 6c bc
       -0.063404396 -0.03821203 -0.0046535726 -0.014435136
0001c0 dd d5 3c bd 1a 66 4d 3d db df 81 3c 6e 89 1b bd
       -0.046102393 0.0501462 0.015853813 -0.03797286
0001d0 ed c7 29 bc 53 d0 42 3d 8d a6 18 3a 72 f7 05 bd
       -0.010362607 0.047561955 0.0005823158 -0.032706685
0001e0 b2 fe 6a bd 4c 71 ab 3a 46 84 02 bd ea 4e 90 3c
       -0.057371803 0.001308003 -0.031864427 0.017615754
0001f0 67 c3 85 3d 18 91 8d bc e6 dc 63 bc e0 93 95 bb
       0.06531411 -0.0172811 -0.013907647 -0.004564747
000200 c8 cb 4b bd ae d9 7e bd d3 a4 8d 3c bf 44 07 3d
       -0.049754888 -0.062219314 0.017290508 0.033024546
000210 8c 20 af 3c f5 f7 ef 3b b6 bb 15 3d dd 21 2f bd
       0.021377824 0.00732326 0.03655597 -0.042756904
000220 72 22 0d 3d f0 4e 61 bd 57 42 0c 3d 5f 3d db bb
       0.034456678 -0.05500692 0.034242954 -0.0066906656
000230 37 2e 6f bd 0f d1 c3 3c ed 17 63 3a 53 6f 3e bd
       -0.058393683 0.023903398 0.0008662928 -0.046492886
000240 79 53 6e bb d2 17 67 3d 43 37 7c 3d 6d 84 bb 3c
       -0.0036365672 0.0564192 0.06157614 0.022890294
000250 89 38 5a bd e8 e0 2d bd 2e 3f 5d 39 f8 3c ec bc
       -0.053276572 -0.042450815 0.00021099739 -0.028837666
000260 95 c4 a3 bc 1b bc a3 3c 77 1c b0 3b 08 3f cf bc
       -0.019991199 0.019987157 0.005374487 -0.02529861
000270 88 69 2c bd 34 c8 44 3c 7f 33 67 bd e3 b2 64 3d
       -0.04209283 0.012010623 -0.056445595 0.055834662
000280 96 42 d7 3b e9 b0 cd bc e8 47 53 bb 54 ce 65 bd
       0.006569217 -0.025108771 -0.0032238904 -0.056104973
000290 35 02 fb 3c 33 8e a1 3b 4f 81 f1 bc ad 69 a8 bd
       0.0306407 0.0049302815 -0.029480604 -0.08223281
0002a0 84 ce 0e bd 02 01 18 3b be 7c c5 bb 89 0b 75 3d
       -0.034864917 0.002319396 -0.0060268333 0.059825454
0002b0 f5 c3 07 3d 31 e6 4d 3d 13 c4 6b 3b 37 0d 43 3d
       0.033145864 0.050268356 0.0035975024 0.047620025
0002c0 a0 f0 43 3c 6f fa 2e bd d6 b7 6e 3c 29 91 f0 3c
       0.011959225 -0.0427193 0.014570197 0.029366093
0002d0 e0 cb e7 3c 14 f0 43 bc 68 5d c9 bb 51 53 bb bc
       0.028295457 -0.011959095 -0.006145168 -0.022866877
0002e0 09 06 9d bb 3f c1 8b bd b7 c7 9a 3c 37 0f 61 bc
       -0.004791979 -0.06823968 0.01889406 -0.013736538
0002f0 05 f1 d6 3c 27 26 5b 3d 0e e2 6f 3d 9f 7b 87 3b
       0.026237974 0.05350318 0.058565192 0.00413461
000300 40 f7 12 bc d4 c8 29 3d 5c 8d 70 3c f6 a4 30 bd
       -0.008970082 0.04145129 0.01468214 -0.04312607
000310 a1 6d 74 3c 36 a3 59 3d b6 0d 52 3d ec 3a 78 bd
       0.014918716 0.053134166 0.051282607 -0.060603067
000320 07 7e 83 bd 44 1f 51 bd 70 76 e9 3c 41 0d 66 3d
       -0.06420522 -0.051055208 0.028498858 0.056164984
000330 99 af 97 3c 73 89 99 bb 98 ef 25 bd ab 38 14 bd
       0.018516349 -0.0046855747 -0.040511698 -0.036186855
000340 21 28 50 3d fd 16 57 3d ff b8 4c bd 89 59 99 bb
       0.05081952 0.052512158 -0.049981114 -0.004679863
000350 d5 d9 2e bd 17 33 01 39 6f 4d 58 bd 8b 20 e1 3c
       -0.04268821 0.00012321431 -0.05280822 0.027481338
000360 85 ca 05 3d a2 46 1d bd 24 33 2d bd c8 f4 88 3d
       0.03266384 -0.03839744 -0.0422851 0.06687313
000370 fb db 27 bc 8c 81 e1 3c 12 42 c0 3c 81 9d 82 bc
       -0.0102453185 0.027527593 0.023469005 -0.015944244
000380 9b db b3 bc d2 0c a0 3b 97 c7 73 bd 88 b5 be bc
       -0.021955302 0.004884341 -0.059516516 -0.02327992
000390 34 47 80 bd dc db 9b bc db c9 95 3d dc 1d b5 bc
       -0.06263581 -0.019025736 0.073138915 -0.022108965
0003a0 89 f3 1d 3a 7c 12 08 3c 1c ab 10 bd 0f 59 33 3d
       0.0006025364 0.008305188 -0.035319433 0.043786105
0003b0 52 af 00 bd 68 73 d0 bc b0 9a 14 bd 88 9d 0a bd
       -0.0314172 -0.025445655 -0.036280334 -0.03384164
0003c0 37 f9 ee 3c 36 5d 6e 3d f1 15 23 3c 80 a8 44 bd
       0.02917157 0.05819436 0.009953962 -0.048012257
0003d0 07 ef 57 3d 4d db 52 3d af 21 50 bc fa d7 4a bd
       0.05271819 0.051478673 -0.012703343 -0.049522378
0003e0 a6 77 14 bc 82 c0 80 bb c7 14 60 3d 68 b1 44 3d
       -0.00906173 -0.0039291987 0.054707315 0.04802075
0003f0 c0 a5 55 bd 44 0a 80 3d 61 e3 78 bc a0 12 25 bd
       -0.052160025 0.06251958 -0.01519093 -0.040300965

net.6.weight f4 [128, 256]
000000 20 b5 a2 3c b4 4e 38 bd ca 83 6d 3d 48 02 18 bd
       0.019861758 -0.044996932 0.057987012 -0.03711155
000010 00 0d ba bc 6c ef 47 bd e8 23 2d 3c 00 9f b4 3c
       -0.022711277 -0.048812315 0.010567643 0.022048473
000020 90 ab 1f 3c 92 7d 15 bd e6 5d 1d 3d 34 e3 f8 bc
       0.0097454935 -0.036496706 0.038419627 -0.030381776
000030 88 28 fe bc 20 62 26 bc 68 18 ed bc 5c 32 8a 3c
       -0.031025186 -0.010155231 -0.028942302 0.016869716
000040 58 92 60 3c 70 a7 b9 3c 34 4c 11 bd 60 0a f6 3c
       0.013706766 0.022662848 -0.035473064 0.030034244
000050 c0 27 df bc 64 25 cb 3c 00 d6 4f 3b c6 48 1d bd
       -0.027240634 0.024798103 0.0031713247 -0.03839948
000060 90 4d 04 bd f4 2f 5b bd 82 b9 33 3d da d0 1c 3d
       -0.032300532 -0.05351253 0.043878086 0.038285114
000070 e4 43 a3 3c 40 52 2d bd 1e 83 5f 3d 30 b8 d4 bc
       0.019929834 -0.042314768 0.054568402 -0.025966734
000080 c0 98 fb bb 28 ef c4 3c 7e 9b 15 bd 00 38 ec b9
       -0.0076781213 0.02403982 -0.036525242 -0.0004505515
000090 3a df 21 bd 56 31 3a bd 00 96 0b bc d0 31 fc 3c
       -0.039519526 -0.045457207 -0.0085196495 0.030785471
0000a0 c8 3a 4a bc a0 3a f6 bb 8c 59 d7 3c e0 43 36 3c
       -0.012343116 -0.007514313 0.026287816 0.011124581
0000b0 1c df e1 bc 70 b8 70 bd 58 9e 36 3d 74 3a b3 bc
       -0.027572207 -0.058769643 0.044584602 -0.021878459
0000c0 72 19 60 3d 00 65 02 3d dc f1 6d bd c4 9b d8 bc
       0.054711767 0.031834602 -0.058091983 -0.026441462
0000d0 72 19 2f bd 10 41 17 bc a6 a8 5c bd 7e bb 4d bd
       -0.042748876 -0.009231821 -0.053871773 -0.050227635
0000e0 c8 08 96 3c 22 3a 24 3d 80 04 d7 3b 7e 3b 76 3d
       0.018314734 0.040094502 0.0065618157 0.06011533
0000f0 a8 e2 ec 3c 24 ae 57 3d 0c 3c 26 bd a0 87 56 bd
       0.028916672 0.052656308 -0.04058461 -0.052375436
000100 28 48 6d 3d 08 d6 23 bd 44 fc 0e bd e4 4a 99 3c
       0.05793014 -0.039999038 -0.034908548 0.018712468
000110 88 03 5d 3c 00 b6 10 bc 08 6e 5a 3c c0 cd 08 3d
       0.013489611 -0.008832455 0.013331898 0.033399343
000120 10 7c fc bb 12 7d 2c 3d bc f5 fe bc c8 2e 18 bc
       -0.007705219 0.042111464 -0.031123035 -0.009288497
000130 e8 4a f1 3c 84 a3 21 bd 28 98 e7 bc ac 47 3f bd
       0.029454663 -0.03946258 -0.028270796 -0.04669921
000140 2c a0 69 3d b0 39 8e 3b c0 8a 2d 3d 88 1d a2 3c
       0.057037517 0.004340373 0.04236865 0.019789472
000150 5a d0 5b 3d 56 da 38 3d 10 cd 36 3c 80 c1 76 bc
       0.053665496 0.045130096 0.011157289 -0.015060782
000160 3c 8b 41 bd c2 cd 22 bd 88 d7 97 bc c8 ea 5e 3d
       -0.047251925 -0.039747007 -0.01853539 0.054423124
000170 b2 d0 2a bd b0 02 87 3b 94 51 54 bd 7c 8f 53 3d
       -0.041702934 0.0041201934 -0.05183561 0.05165051
000180 60 67 9d 3c d8 f8 57 bd 60 35 1f 3b 50 94 79 bd
       0.019214332 -0.05272755 0.0024293289 -0.060932457
000190 dc d0 a5 3c 58 71 df 3c 46 91 16 3d 00 28 ee 38
       0.020241193 0.027275726 0.036759637 0.00011356175
0001a0 d4 1c 21 3d 16 fb 37 3d 10 aa b1 bc 90 0c 8c bc
       0.039334133 0.04491719 -0.021687537 -0.017095834
0001b0 b4 28 4c 3d c8 3e 5b bd f0 4e 0d 3d 06 53 04 bd
       0.049843505 -0.05352667 0.03449911 -0.03230574
0001c0 a2 ea 63 bd f0 ef a2 3c a0 9d 5e 3d e0 7f 45 bb
       -0.055643685 0.019889802 0.05434954 -0.0030136034
0001d0 0e 8e 3d bd 2c df 14 bd 68 33 d3 3c 70 8d fd bb
       -0.046278052 -0.036345646 0.025781348 -0.007737808
0001e0 34 8c 6d 3d aa 5d 50 3d f0 a7 0c bc 34 31 d7 3c
       0.057995036 0.050870575 -0.008584961 0.026268579
0001f0 02 b1 73 3d 44 be eb 3c 9c de 8a bc 60 90 7b bc
       0.05949498 0.02877725 -0.016951852 -0.015354246
000200 62 7b 26 bd 28 8e 79 bc 78 07 68 bc 04 ef e4 3c
       -0.04064501 -0.015231647 -0.014161937 0.027946003
000210 20 57 4b 3b 00 a0 4d 3d 32 1c 46 3d 38 27 7a bd
       0.0031027272 0.050201416 0.048366733 -0.06107256
000220 50 76 dc bc 3c d0 be 3c c0 3e 26 bd 84 6c 37 bd
       -0.026911885 0.023292653 -0.040587187 -0.044781223
000230 90 a9 39 bc f8 3e 73 bc 48 ec 57 3d 70 81 df bb
       -0.011331931 -0.014846556 0.05271557 -0.00682085
000240 6c 03 7e 3d f8 df 39 3c 68 53 9d bc c0 c7 82 ba
       0.062014982 0.011344902 -0.01920481 -0.0009977743
000250 78 da 36 bd ca 28 55 3d e0 9b 1f bd c8 54 48 bc
       -0.04464194 0.052040853 -0.038967013 -0.012227245
000260 44 0c ab 3c d0 a5 53 bc 9e bc 6d 3d e4 4a f0 3c
       0.020879872 -0.012917951 0.058041207 0.029332586
000270 2c a4 17 3d 80 2e 2c bc 6a 0e 6d 3d 76 d8 5c bd
       0.0370218 -0.010509133 0.057875074 -0.05391737
000280 b6 72 14 3d 08 1b 7d bc 18 e7 07 3d 24 99 39 3d
       0.03624221 -0.015448339 0.033179373 0.045312062
000290 20 f3 bb bc 5e 9b 6b 3d ac fa 1a bd f4 99 32 bd
       -0.02294308 0.057521217 -0.037836716 -0.043603852
0002a0 98 10 05 3c 88 e9 87 3c 3e 26 75 bd 78 fb 3b bc
       0.008121632 0.016590849 -0.059850924 -0.011473529
0002b0 14 43 48 3d 80 62 90 3b 28 86 3f bc 46 34 46 3d
       0.048892096 0.0044062734 -0.0116897 0.048389696
0002c0 78 09 4e bd f8 48 d9 bc b2 de 2e 3d 84 d3 5d 3d
       -0.050302 -0.026524052 0.042692848 0.054156795
0002d0 7c b3 e7 bc 90 52 c4 bb d8 09 6c bd 5a 30 2a 3d
       -0.028283827 -0.0059912875 -0.057626575 0.041550018
0002e0 9c c0 38 3d 8e a7 52 3d 80 84 0e 3b 20 db 88 3c
       0.04510556 0.051429324 0.0021746457 0.01670605
0002f0 e8 f2 17 bc 66 f6 5f bd 6e 9f 5b bd b8 91 7d 3d
       -0.009274222 -0.054678343 -0.05361884 0.061906546
000300 60 12 ca 3c b0 dd c8 3c ec c5 63 3d a0 53 3a bb
       0.024666965 0.024519771 0.055608675 -0.0028431192
000310 78 99 34 bc 3c cd 42 3d ac e7 25 bd 88 a3 1f bc
       -0.011022918 0.047559008 -0.040504143 -0.009743579
000320 9e a2 6c 3d b0 45 3c 3c da 8d 77 bd d8 bb 04 3c
       0.05777227 0.011491224 -0.060438015 0.008101426
000330 aa 3c 50 3d 80 8f 08 ba 30 71 de bb 90 d8 1e 3d
       0.050839104 -0.00052093714 -0.0067883953 0.03878075
000340 0a 25 0f bd 24 63 e4 bc 00 72 a8 39 cc 82 9e 3c
       -0.034947433 -0.027879305 0.00032128394 0.019349478
000350 5c 0e d3 3c a2 fc 50 bd 6e 92 2d bd e8 d9 5f 3d
       0.025763683 -0.05102218 -0.042375974 0.05465117
000360 f0 b1 29 3c 60 c0 5f 3c 48 3e 48 bd 8c a1 c5 3c
       0.010357365 0.013656706 -0.04888752 0.024124883
000370 78 b1 35 bd 24 ef b2 bc 00 5f 42 3b da a5 72 3d
       -0.0443587 -0.021842547 0.0029658675 0.0592402
000380 08 88 05 3d d4 77 26 bd fc 9f 9b bc 38 f8 47 3d
       0.032600433 -0.04064162 -0.018997185 0.048820704
000390 78 9f 61 3d 58 29 2f 3c 10 17 f2 3c e4 3a 63 bd
       0.055083722 0.010691009 0.029552013 -0.055476084
0003a0 84 45 1e 3d 20 4a ec 3b 6c e2 e9 bc 6e 5d 0e 3d
       0.038640514 0.007210985 -0.02855035 0.03475707
0003b0 e2 4d 72 3d fa 26 4d bd b0 4d 91 bb 04 61 4d 3d
       0.059156306 -0.050086 -0.00443431 0.05014135
0003c0 a4 7e 53 3d 9c e0 25 bd 1a 50 7b 3d fc 88 6a bd
       0.051634446 -0.040497407 0.061355688 -0.057259545
0003d0 48 31 09 bd 26 28 46 bd 4a eb 56 3d 98 38 e4 3c
       -0.033494264 -0.048378132 0.052470483 0.027859017
0003e0 7c 63 b2 bc 20 ab 34 bd 14 88 0e 3d 08 89 2b 3c
       -0.021775953 -0.04410851 0.034797743 0.0104696825
0003f0 b4 a5 11 3d e0 be dd bc f4 75 90 3c d0 6f cb 3c
       0.035558417 -0.027068555 0.01763437 0.02483359

net.6.bias f4 [128]
000000 20 29 d6 bb 61 ba 4a 3b f3 f5 ec 3c 36 4d 6f 3c
       -0.006535664 0.0030933844 0.028925871 0.014605811
000010 3a 61 5b bd ec fa 73 bd 7b 4a d6 3b 7a 64 5d 3d
       -0.05355952 -0.05956547 0.0065396405 0.0540509
000020 f5 e3 5f bd 82 a4 3d 3b 29 6d 17 3d e4 1f 1c 3d
       -0.054660756 0.0028937166 0.036969338 0.03811635
000030 54 39 97 bd 03 01 d4 bc 08 4f 16 bd c4 74 3f 3d
       -0.07383981 -0.025879389 -0.036696464 0.046742216
000040 44 cb 50 3d dc d8 02 3d 4d af e2 bc 13 b7 45 bd
       0.0509751 0.031945094 -0.02767148 -0.048270296
000050 b4 8c 2a 3d 3a 42 41 bd 66 0d 7b bb 02 aa e0 3c
       0.04163809 -0.0471823 -0.0038307547 0.027424816
000060 fd d2 49 bd 99 dd b3 3b cb 0f a5 bc f9 a5 51 bd
       -0.04927348 0.005489063 -0.020149132 -0.051183674
000070 09 d1 dc 3b e5 63 3b 3d 49 96 3d 3d b1 42 62 3d
       0.006738786 0.045749564 0.0462859 0.055239383
000080 e7 c3 3a bd 56 3e 1a 3d e6 00 24 3d c3 40 0d bc
       -0.045596983 0.037657104 0.04003992 -0.008621397
000090 3c 7b 47 bd 4c 1b e4 bc a7 f5 34 3c bc 86 f0 bc
       -0.04870151 -0.027845047 0.011044896 -0.029361121
0000a0 59 d3 00 3d e7 40 af 3c 28 d7 2d 3d 55 d7 73 bd
       0.031451557 0.021393253 0.042441517 -0.05953153
0000b0 d2 14 7a bd b4 9f 2f bd 57 71 3e bd 52 01 f3 bb
       -0.061055012 -0.042876914 -0.046494808 -0.007415929
0000c0 cb db ed bc 6d 23 97 bc 49 2f 1f bd 91 92 2b 3c
       -0.02903547 -0.01844951 -0.038863454 0.010471956
0000d0 9f b5 f3 3c ab 64 6d 3d f2 61 78 3d 1f 66 d1 3c
       0.02974969 0.057957333 0.060640283 0.02556139
0000e0 8e 66 7e 3d a0 67 88 bb 73 4a 78 bd 20 4b c6 3b
       0.062109523 -0.0041627437 -0.060617875 0.006051436
0000f0 6f 3f 3c bd 89 67 0c 3d 3d a7 be 3a e8 12 63 bb
       -0.045958932 0.034278426 0.001454569 -0.003464872
000100 e4 36 0a bc 19 a5 ec 3c 66 1f 51 bc 8a 7d 57 3d
       -0.0084359385 0.028887318 -0.012763834 0.052609958
000110 34 4c 82 3d 37 74 8d bc 5c b9 44 bd 9c d2 0e bd
       0.06362191 -0.01726733 -0.048028335 -0.03486882
000120 ab ee 52 bd cd 14 c0 bb 21 d8 e1 ba 13 88 00 bd
       -0.051497143 -0.0058618546 -0.0017230549 -0.03137977
000130 e5 46 92 3d 47 17 29 3d 76 42 2b bd a1 2b d5 3a
       0.07142428 0.041281965 -0.04181143 0.0016263613
000140 2e 17 32 3d dd d9 24 bd 82 e0 50 bd 2f c3 ed bb
       0.043479137 -0.040246833 -0.050995357 -0.0072559337
000150 45 fe 59 bd 84 3c c8 bc 94 60 42 bd ea 16 e0 3a
       -0.053221006 -0.024442919 -0.047455385 0.0017096673
000160 cb 61 97 bc a2 4d a4 3c 3a c9 13 3c f8 53 a7 3c
       -0.018479249 0.02005655 0.009020144 0.020425782
000170 9e 6e f6 3c 2b 35 8c bc 55 2c 75 3d 00 aa bf 3c
       0.030082043 -0.017115196 0.05985673 0.023396492
000180 43 35 f2 bc 29 c7 ad bb f4 4c 49 bd 41 f3 10 3d
       -0.029566413 -0.0053032828 -0.049145654 0.035388235
000190 8a 85 4c 3d da 73 73 bd c9 c4 48 3d 03 37 cf bc
       0.04993204 -0.059436657 0.049015794 -0.025294786
0001a0 e4 7c 49 3c 46 e7 8a bc 4c d9 31 3c 0e a7 5d bd
       0.012297843 -0.016955983 0.01085503 -0.054114394
0001b0 fc 76 3a bc b1 fa 21 bd 6b 50 9e bb 8a 42 d5 bb
       -0.011380907 -0.03954572 -0.004831364 -0.006508176
0001c0 d3 95 ae bc 0c 7b f7 bc c4 e6 b0 bc 28 49 d2 3c
       -0.021311676 -0.03021004 -0.021594413 0.02566965
0001d0 53 28 48 3d 18 21 90 39 9b b2 05 3c a7 2c 63 bc
       0.04886658 0.00027490477 0.008160259 -0.013865626
0001e0 c5 7d cd bb 30 9b 65 3c d4 58 d9 bc 92 59 ce bc
       -0.0062710964 0.01401405 -0.026531614 -0.025189195
0001f0 ee a8 34 bd 27 6e 80 3a ed 7e e7 bc eb 8f 78 bd
       -0.044106416 0.0009798453 -0.028258765 -0.060684126
