neuralnet/best_atmosphere_model.pth (torch, 534885 bytes, 10 tensors)

net.0.weight f4 [128, 3]
00000000: ca92 053f da6a 58be f0de 82be 4751 a63d
00000010: 8bb3 e43e 37b8 be3e 633a 203e 3dad e43e
00000020: bb87 a33e 001a 063f 0e32 96bd 9d1e 08bf
00000030: 579e 05bf e03e 01bf 24b3 c6be 1289 a23d
00000040: 8106 b4bd 4fc7 09bf 1a29 733e e1f5 07bf
00000050: ab37 b6be 471b aebe 71f0 1a3f b12e ffbd
00000060: 598b ae3d 64f5 1bbd d44f a8be e8cf ffbe
00000070: 91f6 67bd aa84 bbbb de85 69be 9882 1d3f
00000080: 61f9 20bf 5eab 413e ca6c 30bf 2290 083e
00000090: 9dfa 83be 4e3a f8be 465d ccbe bcbe c03e
000000a0: 9383 c2bd 8274 2dbe 9562 f83e d812 eebe
000000b0: 1dc9 cfbe 61fb 5dbe 56fc 283f 74d5 9d3e
000000c0: 1fd6 a03e d87d fbbd da47 87be c8d5 debe
000000d0: c2a5 0ebf e854 e9be ac8f a9bc 4516 1f3e
000000e0: d118 06bf 01b0 e63b 9c94 c53d d94c 3abe
000000f0: a849 653e ae57 dbbc eab9 6d3e f0a0 e83e
00000100: 20d1 1a3f 8d5b ea3e e440 9a3e 4577 bc3e
00000110: a583 963e 3b6e a93e 9620 143f 2291 03bd
00000120: 30be 35be 437b 30be 1c53 b13e 8231 d6bd
00000130: 5938 64be 8e58 1fbd ecf5 b13d 5f0e 253e
00000140: 4ba7 e4be a881 db3d e986 adbe c76b 04bf
00000150: e2c9 4fbe 35f5 6bbe 3a9b f13e 5b02 063f
00000160: 9f12 3a3d fc31 ba3e 6b97 933e 7104 c2be
00000170: 16bd 0a3f dd7f febe e5e4 f4bd 3557 023f
00000180: 9fcb db3e 7ae4 1ebf 848a 95be 1034 50be
00000190: 1e4c bebe edf7 15be e4dc 933e 0b9d 12bf
000001a0: e552 133f a72d 033f 7196 e3be 7ef9 c8be
000001b0: 3698 c3be 659a 033f 107c fa3e ee8a 0e3f
000001c0: 2bb5 b53e 83c8 8b3d 6a0c d43e 228b 6e3e
000001d0: cdd9 0a3f 7b54 c63e fac2 bdbe b299 6c3e
000001e0: 9005 e93d 20af 073c dd4c 363e bc4f 193e
000001f0: 3f96 cf3e a5da 0dbe 30e4 fbbe 7619 f2bc
00000200: 6835 c33e 11d7 6dbe 7f4a fc3e 16da 0bbb
00000210: d2e8 b9bd 098d 0b3e 2f51 cb3e 39ac 5dbd
00000220: de23 f7be 7629 dd3e 73ca 983e b87e b1be
00000230: 2189 ef3d af20 dd3e cfa6 febe 75a2 acbe
00000240: c75f 033f 72d1 00bf 39e4 d4be ad45 d8be
00000250: 9a8a 33be 7dbe ce3e 5e57 933d c9d7 333c
00000260: abde 0cbf e948 f0bd 3b15 763e 7850 0dbf
00000270: 64d4 723e 317e cbbe fe19 ae3e c356 f1be
00000280: 760d eb3e e689 b2be 758f 37b9 66d4 cfbe
00000290: cc10 14bf e4e4 853e 1bde 2abf 468a 8b3e
000002a0: cd22 5a3e f8e4 943d 23fe 303e 38b0 993e
000002b0: a96e 9e3d 01a2 17be 756b 32be 0402 133f
000002c0: 43e7 b3be d4fe 6f3e 9bd9 33be 939c a83e
000002d0: 3221 f7be c4c9 173f 2208 d43e 008a 85be
000002e0: b477 003f a336 b8bd 8710 0fbf 46aa 16bd
000002f0: 98b6 aabd 2729 d5be 3f27 34be 46c2 b1be
00000300: f935 a73c 232b f23e 21fb 013e 9ec9 29bd
00000310: 383a 1d3e 1a74 0cbf 80a9 dabe 7719 073f
00000320: 9005 bbbc eddb 033e 98c9 183f 7e66 ddbd
00000330: a433 95be cea1 c5bc 2fc1 1cbf cc23 bb3e
00000340: bd56 93be 9a08 803e 9988 dc3e fa64 7f3e
00000350: 0545 973d 13ab 1a3f 3b0f 603e f456 a13e
00000360: 06f7 17be 9cd1 f83e 48bc 1a3f 36c8 dcbe
00000370: c935 e93d e722 6f3e 7120 46be fe9d 1f3f
00000380: 2eb0 1b3e b3b2 063e c79d 26bf 7781 033f
00000390: 7a30 9dbe 64e8 8b3e 91a8 16bf 402c 93be
000003a0: c20b 4ebe cacf 83be f82b 95bd 8567 113e
000003b0: e2d0 ed3e df85 083e 5d46 e6be c91a d4be
000003c0: 18f3 113f 0176 95be 77f4 15bf feee d23c
000003d0: 1960 eb3d a1c0 26be 9d40 0d3f 4b35 dcbe
000003e0: a48f d53d b0ac 8c3e f463 2abf af49 b53e
000003f0: fa4b 023e 5796 3a3f c156 603d 93c0 8e3e
0.5217711 -0.2113451 -0.25560713 0.08120971 0.4466823 0.3724992 0.15647273 0.4466342
0.31939492 0.5238342 -0.07333766 -0.5317171 -0.5219473 -0.50486565 -0.38808548 0.079363
-0.08790303 -0.53819746 0.23746148 -0.53109556 -0.35589346 -0.34005186 0.60523134 -0.124600776
0.08522672 -0.03807582 -0.32873404 -0.49963307 -0.05663163 -0.005722602 -0.22804973 0.61527395
-0.6288052 0.18913028 -0.68916 0.13336232 -0.2577714 -0.48481983 -0.39914912 0.3764552
-0.09497752 -0.16938975 0.48512712 -0.46498752 -0.40583125 -0.21677925 0.66010034 0.30826914
0.3141336 -0.12279862 -0.26422006 -0.43522477 -0.55721676 -0.4557259 -0.02069839 0.15535839
-0.52381617 0.0070400243 0.096474856 -0.18193378 0.22391379 -0.026775207 0.23215452 0.45435286
0.6047535 0.45772973 0.30127633 0.36809745 0.29397312 0.33091912 0.5786222 -0.03212083
-0.17748332 -0.1723452 0.3463372 -0.104586616 -0.2228712 -0.03890281 0.08689484 0.16118763
-0.44658884 0.10718089 -0.3389199 -0.51726955 -0.20291856 -0.23042758 0.4718874 0.52347344
0.045427915 0.3636626 0.2882646 -0.37894014 0.5419477 -0.49706927 -0.11957721 0.5091432
0.42928788 -0.6206738 -0.29207242 -0.2033236 -0.37167448 -0.14645357 0.28879464 -0.5727088
0.5754836 0.51241535 -0.44450715 -0.39252847 -0.38202065 0.5140746 0.48922777 0.5568074
0.35489783 0.06825354 0.4141572 0.23295262 0.5423859 0.38736328 -0.37062818 0.23105505
0.11378014 0.008281499 0.17802759 0.14971823 0.40544316 -0.13852938 -0.4919753 -0.029553156
0.38126683 -0.23226573 0.49275586 -0.0021339706 -0.0907761 0.1362802 0.39710376 -0.054119322
-0.48269552 0.43195695 0.29841956 -0.3466699 0.11696077 0.43188998 -0.4973664 -0.33717695
0.5131802 -0.5031959 -0.4158037 -0.42240658 -0.17533341 0.40379706 0.07194398 0.01097674
-0.55027264 -0.117326565 0.24031536 -0.5520091 0.23713833 -0.39744714 0.34004205 -0.47136506
0.45908707 -0.34870833 -0.00017505682 -0.40591735 -0.5783813 0.26151192 -0.66745156 0.27253932
0.21302338 0.07270235 0.17284445 0.30017257 0.077359505 -0.14807893 -0.17423804 0.5742495
-0.35137376 0.23437053 -0.17563479 0.32931957 -0.48267514 0.59292245 0.41412455 -0.26081848
0.5018265 -0.08994796 -0.55884594 -0.03678348 -0.08335608 -0.4163296 -0.17593096 -0.3471853
0.020411478 0.47298536 0.12693454 -0.041452043 0.1535424 -0.54864657 -0.42707443 0.5277323
-0.0228298 0.12876864 0.5968261 -0.108105645 -0.2914096 -0.024125006 -0.61232275 0.36550748
-0.28777114 0.25006562 0.43072966 0.24940863 0.07386211 0.6041729 0.2188081 0.31511652
-0.14840326 0.4859742 0.60443544 -0.431215 0.11387212 0.23353158 -0.19348313 0.6235045
0.15203926 0.13154106 -0.650845 0.5136942 -0.30701047 0.27325737 -0.5885096 -0.28744698
-0.20121673 -0.25744468 -0.07283777 0.14199646 0.46448427 0.13332318 -0.44975558 -0.41426685
0.57011557 -0.29191592 -0.5857615 0.025748726 0.114929385 -0.1628442 0.5517672 -0.4300941
0.10427788 0.274755 -0.66558766 0.3540778 0.12724295 0.7288565 0.054770235 0.27881297

net.0.bias f4 [128]
00000000: 3dd3 563c 1b9d aa3e fa92 ab3e c132 033f
00000010: 709a f23e 0648 43be cf8b b739 c2c7 d0bc
00000020: a6c8 fdbd 02ae b13e 419d f1be 015a 113f
00000030: 4042 d83e d896 33be e871 ffbe d383 abbe
00000040: d6b3 fdbe 9357 18be 0651 1bbd 2573 0ebf
00000050: d009 903e 5ee0 aa3e c2cf ddbd 1a7a 5f3d
00000060: 712e dabe f154 e83d 8232 5dbe 679a 8e3e
00000070: 5e98 ff3e f9f1 a93d e606 1c3d 6796 9a3d
00000080: 37f8 d2be 95bc 7dbd 6939 a1be d6e2 b4bd
00000090: a195 f4bc 367c 41be 51b1 f0be 6041 0a3f
000000a0: e477 0abf 8c28 24be 1e02 96be 1255 7c3e
000000b0: 13b3 f33e cf8c ea3e c18a 303d 3471 de3e
000000c0: 4390 303e 628c c2bd 30ae df3e f431 dbbd
000000d0: fb23 0f3f 1163 5cbd 1b25 ae3d 1b4e 06be
000000e0: 9c23 37bd 14ca a43d 3df5 d73e c989 2ebd
000000f0: e602 2dbc b195 5dbd 613b 9fbe 68a1 9dbe
00000100: bf6d 0d3f 13d2 bf3e 1810 ac3e a585 473e
00000110: fc37 80be c00b e13d 01f9 3c3e dee2 87be
00000120: 3000 ecbe d55b fc3e 98c0 653e 291d efbe
00000130: cf90 d33e 8b14 cd3e cf36 0fbf 27eb d4be
00000140: af83 8d3e ad54 83be f593 8c3e cdd4 c33e
00000150: 5eda 453e fe0a f9be 9151 cf3e ad2f 96be
00000160: 6100 083e 2d93 063f d816 f73e 0e66 393e
00000170: 7a83 02bf 58b3 c1be b094 08bf 958e da3e
00000180: 7a14 0abf 0fc7 833b 6b47 38be 7cbd f1be
00000190: c73d a83e efc3 5e3e 846e 4a3e 4c33 03bf
000001a0: 561b 9a3e 49d3 d5be b4f6 c03e d805 1e3e
000001b0: 1bdc 6ebe e778 55be 33b9 e9bc d261 dbbe
000001c0: 8e46 0c3f 9c05 813e 482b dcbe 59f0 583e
000001d0: eec4 d1be 7ed9 4dbd d9e5 3bbe dcb3 653e
000001e0: e459 63be b41e 07bf 8382 0d3f 0dff d0be
000001f0: 3c48 033f 48c5 803c b4ba debd 1e23 813c
0.013111887 0.33322987 0.33510572 0.5124932 0.4738345 -0.19070444 0.00035008646 -0.025485877
-0.12391786 0.3470307 -0.47190288 0.5677796 0.42238045 -0.17538011 -0.4989159 -0.3349901
-0.49551266 -0.14877157 -0.037919067 -0.55644447 0.28132486 0.33374304 -0.10830642 0.054559804
-0.42613557 0.11344326 -0.21601298 0.27852175 0.49920934 0.08298106 0.038092516 0.07548218
-0.41204998 -0.061947424 -0.31489113 -0.08832328 -0.029856505 -0.18895039 -0.47010282 0.54006004
-0.5408919 -0.16031092 -0.2929849 0.24641827 0.4759756 0.45810553 0.043101076 0.43445742
0.17242531 -0.09499432 0.43687582 -0.10702887 0.55914277 -0.053805415 0.08503171 -0.13115732
-0.044711694 0.08046356 0.4217929 -0.04261187 -0.010559773 -0.054097835 -0.3109999 -0.30787206
0.55245584 0.3746496 0.3360603 0.19484575 -0.25042713 0.10988569 0.18454362 -0.26540273
-0.46093893 0.49288812 0.2243675 -0.46701935 0.41321418 0.40054736 -0.55943006 -0.41585657
0.2763953 -0.2565054 0.27456632 0.38248292 0.19321582 -0.486412 0.40491918 -0.2933325
0.13281395 0.5256832 0.48259616 0.18105337 -0.5098187 -0.3783214 -0.5335188 0.42686906
-0.53937495 0.0040215324 -0.17995994 -0.47214878 0.32859632 0.2175443 0.19768721 -0.5125015
0.3009898 -0.4176276 0.3768822 0.15431917 -0.23326151 -0.20846902 -0.028530693 -0.42848068
0.5479516 0.25199592 -0.4300177 0.21185435 -0.40970558 -0.050256245 -0.18349399 0.22431892
-0.2220226 -0.52781224 0.5527727 -0.40819588 0.51282096 0.015719071 -0.108754545 0.015763815

net.2.weight f4 [256, 128]
00000000: d191 e13c b159 0ebd 8e3e 723d 725f e93c
00000010: 1409 243d d200 643d ffaf 0bbd 8455 e6bc
00000020: 83d2 df3d 8d59 d73b c751 2f3a 41c0 c43c
00000030: 4cf0 863d 82f5 a73b b376 803d ea77 d23c
00000040: c7e4 d13b f1d9 d2bc d7f6 253d 4a7b 683d
00000050: 2e3a c7bc 67a2 4d3d 7c3d a9bd 26bb 973d
00000060: dc37 18bd 6abf 4bbd 6ff2 cf3d e9ce 723c
00000070: cd2e 67bd 09b4 383a a682 3a3b 92e8 023d
00000080: b32e c7bd 8f21 a7bd cb70 25bb 8cc5 1b3c
00000090: f48c bfbd 854e 893d 9c64 90bd 4020 3dbc
000000a0: ed19 123c e73a 1f3d b748 73bd 01c0 ffbc
000000b0: bc75 d8bd 731a c5bd e65a 86bd 5f53 a2bc
000000c0: a583 7abd a178 1a3c d638 193d baf7 b53d
000000d0: d30a 98bd be11 34bd 4620 663d a45b 20bc
000000e0: 167d 03be 52ac c13c fbdc 3ebd b808 1e3c
000000f0: f5d7 2c3d ae6a dbbd 1c3b c33c 59cc a33c
00000100: 64ac 45bd 2998 213d 2a15 d83c 628f 8fbd
00000110: ad92 c33c 24b4 563d 2028 743c f19a 05be
00000120: f3ba 14bd 5c8b c4bd 1ddd 97bd 6402 3abd
00000130: cb19 8c3a ceae 76bd 5eae 9abd 5972 88bd
00000140: 52b2 1abd ab27 56bd 4a6a 1f3d 0c66 a4bc
00000150: 8260 bb3c 98d1 54bd ee26 e9ba e671 9dbd
00000160: 6fe0 fabc b6e4 013c a63a 173d 3162 9e3c
00000170: 644f 103e 5b23 85bd d669 863d 176f b2bd
00000180: 2b93 7ebd bc72 ddbd 0dc2 e239 6a00 acbd
00000190: e1cf 2fbd bb2f 9bbd 3d29 f93c 4574 56bd
000001a0: 3eac 48bd 32fc 80bd 1fb9 273d d652 a3bd
000001b0: 8773 18bc ff49 753d dbf5 78bd 2705 cebd
000001c0: 03ea 25bd 50d6 cd3c e249 993d 0226 533d
000001d0: 9b1f 04be 101a 13be 78b9 543c 6d88 92bd
000001e0: 5822 2bbd d7d8 8d3d 06f9 423d 45a8 3ebd
000001f0: d675 a03b c844 e8bc a553 083d f0ee 4c3d
00000200: 72b7 18bd c8cb a73d d9d3 94bd fcf6 123c
00000210: 06d9 44bb f9b7 9dbb 1391 ffbc 5fe9 043d
00000220: e722 90bd 05be 55bd 3cc2 82bc 0406 b8bb
00000230: 559c 3a3d 0ea1 8a3d d5d3 dd3b a65f 3fbd
00000240: 82d0 5f3c dcdf 923d 8701 f8bc f09e 693d
00000250: 2447 a43d 336a a23d 40e0 2dbd d1f4 2cbc
00000260: 873c d6bc a812 abba d9ac c93c 4e90 91bd
00000270: 19f6 aabd 8f34 8abd ff08 813d da33 35bd
00000280: 8189 213c 53a0 b0bd 17b9 9c3d 56fa 553d
00000290: 576f 2ebc 2854 dd3c 19eb 923c f168 adbd
000002a0: b082 5abc bb7f 48bd bda9 8dbc cfb0 1abb
000002b0: b3f1 5f3c 6865 56bd a7e4 063d b0e2 753c
000002c0: 0742 f43c 6ebd 913b 968f 39bd 454f 16bd
000002d0: 9e84 aa3c 7592 a9bd 8a58 4bbc d2fb 28bd
000002e0: a158 66bd 87fb 973d 400b 693d 541d 8ebc
000002f0: 24c5 653d dca2 c13c ecc1 2d3c 8a6c 833c
00000300: 0471 a6bc ca15 503d 9506 073d 4db2 13bd
00000310: d9b1 a13d 619a 42bd 7e53 593d 4bac 7c3d
00000320: d8c4 93bd 2897 50bd c91f 05bd dee4 2d3d
00000330: 9f54 2abc c8e7 9fbd 2a9c 02bc a77d a83d
00000340: 9e0d 8fbd 48ac e53c 2b72 a93d 0a29 90bd
00000350: bde7 493d 5c66 32bd e7fa 8f3d 58e5 9e3d
00000360: 2bf2 8c3d 6cb6 f63b 5018 3ebd 5909 35bd
00000370: fcb6 b43d 13c4 d1bb 1499 963d d462 5b3d
00000380: c91e 84bd 7d9d 7e3d 4443 cebc 5a4b 24bd
00000390: 5031 84bd 868a 46bd cbaa 923c bdd7 6d3d
000003a0: 28e0 1b3d 4256 bbbc 17ec 6d3d 712e 84bd
000003b0: ab3d 3ebd 6574 31bd 3f7c 1f3d fea5 8b3c
000003c0: cd47 683d 9e1a 813d c007 363c eb4d 5ebd
000003d0: 49e0 4e3d e948 023d 8d33 8fbc adad e93c
000003e0: 3925 a23c ffb3 1b3d 2ca2 35bd 45fe ae3d
000003f0: 4017 0abd b150 f1bc 55f6 5c3c 37a9 93bd
0.027535351 -0.034753505 0.059141688 0.028487895 0.04004772 0.055664845 -0.03410339 -0.028116949
0.10928824 0.0065719546 0.0006687906 0.024017455 0.06588802 0.0051257024 0.0627264 0.025691945
0.006405446 -0.025738688 0.040518608 0.056758203 -0.024319734 0.050203707 -0.0826368 0.074087426
-0.037162647 -0.049743094 0.101536624 0.014819839 -0.056441117 0.00070458703 0.002845922 0.031960078
-0.09725704 -0.08160698 -0.0025244232 0.009507548 -0.093530566 0.067044295 -0.0705044 -0.0115433335
0.008917314 0.038874533 -0.05939552 -0.031219484 -0.10569331 -0.096241854 -0.06560306 -0.019815145
-0.061160702 0.009428174 0.03740772 0.08885141 -0.074239396 -0.043962233 0.056183122 -0.009787474
-0.12840685 0.023641739 -0.046597462 0.009645633 0.04219814 -0.10713707 0.023831896 0.019994901
-0.048260108 0.03945175 0.02637728 -0.0700977 0.023873651 0.05241789 0.014902145 -0.13047387
-0.0363111 -0.09596893 -0.07415221 -0.045412436 0.0010688839 -0.0602253 -0.07552789 -0.06662435
-0.037767716 -0.052283924 0.038919725 -0.020068191 0.022873167 -0.051957697 -0.0017788091 -0.0768774
-0.030624596 0.007928064 0.036921166 0.01933393 0.14092785 -0.06500884 0.06563155 -0.08712595
-0.06215207 -0.108128995 0.00043250658 -0.083985165 -0.04292286 -0.07577463 0.030415172 -0.052356977
-0.048992388 -0.062981024 0.04094803 -0.07974784 -0.009304888 0.05988502 -0.06078134 -0.100595765
-0.040506374 0.025126606 0.07484795 0.05154992 -0.12902682 -0.14365411 0.012983672 -0.071549274
-0.0417808 0.069261245 0.04760077 -0.046547193 0.0048968596 -0.02835311 0.033282895 0.050032556
-0.037284322 0.08193165 -0.07266969 0.0089700185 -0.0030036583 -0.004813191 -0.031197106 0.032449123
-0.07037907 -0.05218317 -0.015961759 -0.0056159515 0.045559246 0.06769 0.006769637 -0.046722077
0.013660552 0.07171604 -0.030274166 0.05703634 0.080213815 0.07930412 -0.04245019 -0.010556416
-0.026151909 -0.0013051825 0.024618553 -0.07107602 -0.08347721 -0.06748306 0.06300544 -0.044238903
0.009859444 -0.086243294 0.076524906 0.052240692 -0.010646663 0.027017668 0.017934369 -0.084672816
-0.013336822 -0.04894994 -0.017292852 -0.0023603921 0.013668465 -0.052342802 0.032932904 0.01500766
0.02981664 0.0044476306 -0.04530295 -0.03669669 0.02081519 -0.082798876 -0.012411246 -0.04125578
-0.056236867 0.07421022 0.056895494 -0.01734797 0.05609621 0.023637228 0.010605317 0.016042966
-0.020317562 0.05080203 0.03296526 -0.036058713 0.0789525 -0.04751051 0.05305814 0.06168775
-0.07215279 -0.050925404 -0.032501016 0.042454593 -0.010396152 -0.07807881 -0.007971803 0.08227091
-0.06985019 0.028036252 0.08273729 -0.070390776 0.04929327 -0.04355465 0.07030278 0.077585876
0.068821274 0.0075290706 -0.046409905 -0.044198368 0.08823964 -0.0064015477 0.07353416 0.053561047
-0.06451184 0.06216191 -0.02517856 -0.040110923 -0.06454718 -0.04847195 0.017903706 0.058067072
0.03805557 -0.02286828 0.05808648 -0.064541705 -0.04644553 -0.043323893 0.03893685 0.017046925
0.0567091 0.06303905 0.011110246 -0.054273527 0.050506864 0.031807814 -0.017480636 0.028525198
0.01979314 0.038013455 -0.044344112 0.08544592 -0.03371358 -0.029457422 0.0134864645 -0.072100095

net.2.bias f4 [256]
00000000: 1134 aabc cd7d 4cbd a059 e8bc 5ed1 ab3c
00000010: 8ec0 753d 3667 8d3d 7f53 8d3d b344 babd
00000020: c736 0a3d a1dd 563d b26b 64bd 9373 6f3c
00000030: 5829 8dbd da09 5dbd 9f6a 3d3d 1d11 14bb
00000040: ac21 d2bc e808 9cbd 9c76 7ebd 15b7 51bd
00000050: b0fb 1b3c af78 2a3d 9e04 9f3d 0ffd a4bc
00000060: be46 16bd 6810 553d 508f 95bd d022 18bd
00000070: b18b 6c3d 0f76 7dbd 2370 0ebb c91c b2bb
00000080: b2ae 983d 7a4e 6b3d bad3 45bd 2a7a 5bbc
00000090: ebc5 a2bd 2618 8d3d ee67 79bd 83d4 9a3d
000000a0: 3f33 9f3c 0e54 4c3b e964 753a 91e7 8d3d
000000b0: 51ff 123d 13aa be3c 8234 69bd 7be8 cfbc
000000c0: fc8b 4a3b d6db 6a3c 50da 7d3d 0e83 283d
000000d0: 4f8f 88bd 9fda a43c 00a4 98bb e2d2 913c
000000e0: 8f9d 0d3d 9594 adbd 6b36 abbd 6206 a23c
000000f0: 4fa8 a63d bc79 63bc b6c6 18bb cbfb 5e3d
00000100: 49ba 0cbd 72e6 d03c 2e4f 49bc 1079 ad3d
00000110: 44ef 80bd b049 32bc bf2f b9bc 4c3f 70bc
00000120: d9d3 403d 9d2b 0f3c c045 04bd ea54 d6bc
00000130: af24 0cbd 315c 283d 5d1d 533d 2096 6abd
00000140: a5c6 7bbd c1de 4b3d f572 b63d 4010 35bd
00000150: e5d5 893d bcb9 9f3d dacc 1abd 907c a2bd
00000160: 349b 8ebd fb30 27bd 2ed3 5c3d 26e9 77bd
00000170: 393c 813d 0686 423d 17da 7f3d a604 31bd
00000180: da48 e7bb 6f4e 8abc 568d 583d 4857 1e3d
00000190: bfe3 1d3c 4727 aa3d e0c2 67bd 6a90 b93c
000001a0: e70e b33c 1f6b ff3c fa37 14bb 0418 53bc
000001b0: 3126 94bc 3076 aabd 14b9 f03c 2baa 5fbd
000001c0: 3971 b33d 83dc 3abd 5259 90bd 18f0 733d
000001d0: 052c aebd a736 65bc 15cd 7cbd 02cd 8e3d
000001e0: ca8a 07bb 5d81 e13c d689 8bbd 55ba d5bb
000001f0: 56a7 dcbc 49d0 99bd 0312 70bc 0b95 b43d
00000200: ce7b 263d db5e 87bd d044 dbbc 433a 833d
00000210: 92fd c23d d3d2 483d d224 733d c366 9f3d
00000220: 9574 f0bc 78e7 73bd 2b08 353d 0cf6 0e3c
00000230: 38d4 37bc 57e2 63bc 1f34 b5bc a932 e03c
00000240: 8554 cebd f6f1 76bd a4a9 2fbc 9e20 be3c
00000250: a02f abb9 b432 043d 20f6 6f3d 5a79 72bd
00000260: 9c36 003c 3a29 b53d 2e92 e7bc 077e 59bd
00000270: 6062 3abd eacf 8d3d 16e6 d6ba b368 8abd
00000280: 68c5 47bd d3b2 8a3d 5cf0 83bd 4c0e cbbc
00000290: 4518 e6bc 5b75 743d 2ad4 94bd e79b 93bc
000002a0: 3f66 193d 22dc 81bd 1ae6 06bd 9a49 593d
000002b0: 07de 7c3d 0088 883d 4842 61bc 7b94 24bc
000002c0: c269 4f3b 51a7 a33c 1170 0fbd b401 0c3d
000002d0: fda9 a03d bbbc 68bd 9144 a4bc d6e3 7d3c
000002e0: 11ab 763d b881 c33c 104e 7fbd 3ab9 413d
000002f0: 70e6 693d 73fe 843c d91f 5e3c af0c 9c3d
00000300: a42b 563c 87d4 9d3a 6936 97bd c33e 803d
00000310: 0ade f2bc 80f2 34bd 759f 263d 074b a8ba
00000320: d669 773d 5029 d7bc 44d1 b83c 2b54 b13c
00000330: a7ed ffbc cc04 4f3d a903 dcbc 7599 90bd
00000340: 4d0a 85bd 1da7 89bd 2f8a 383d 88c0 7f3d
00000350: bd5c 30bd fcb9 70bd 03bb b3bd b104 233d
00000360: ea9d e3bc 87b6 353d 037f 24bd 6691 9b3d
00000370: c072 ce3b 8eb1 0fbd 52f1 b13b 72a6 58bd
00000380: af4f 46bc f866 71bd cf81 243d 592d b4bc
00000390: 902d 8d3d 3f86 fc3c cec4 123d f924 9a3d
000003a0: 4631 43bd 72a9 8c3d 3b2e 9ebd e101 acbc
000003b0: adb5 0bbd 27c6 bf3c 91c3 39bd cae5 253d
000003c0: 84ff c1bd 146e d9bc 1f19 79bd cd37 a53d
000003d0: 4d3f 263c 79a1 943d cd05 86bd 66c8 2fba
000003e0: 458c 3a3b 8d75 d43c e24f adbd 2424 5c3c
000003f0: 251c d43b 9ce7 d93c db40 0dbc 4eeb 563d
-0.02077678 -0.04992466 -0.028363049 0.020973857 0.059998088 0.069044515 0.06900691 -0.090951346
0.033743646 0.052457456 -0.05576677 0.014614957 -0.06892651 -0.053964473 0.04624426 -0.0022593208
-0.025650822 -0.07618886 -0.062124833 -0.05119999 0.009520456 0.041619 0.077645525 -0.020140199
-0.03668856 0.0520176 -0.07302725 -0.037142575 0.057750408 -0.061880168 -0.002173432 -0.0054355604
0.074551955 0.057447888 -0.04829762 -0.013395825 -0.07947906 0.068893716 -0.06089013 0.07560065
0.019433616 0.003117803 0.0009361045 0.069289334 0.03588802 0.023274457 -0.05693484 -0.02537941
0.003090619 0.01433464 0.061975777 0.04114061 -0.06667959 0.020123778 -0.004658222 0.017800752
0.034574088 -0.084756054 -0.08359989 0.019778434 0.08137571 -0.013884004 -0.00233118 0.054439347
-0.034357343 0.02550051 -0.012286944 0.084703565 -0.06295636 -0.010881826 -0.022605775 -0.014663529
0.047077034 0.008738426 -0.03229308 -0.026163537 -0.03421467 0.041103546 0.051541675 -0.057272077
-0.06146874 0.04977298 0.08908645 -0.04420495 0.0673025 0.07799098 -0.037793018 -0.07933915
-0.069631964 -0.040818196 0.053912334 -0.060525082 0.06310315 0.047491096 0.062463846 -0.043217324
-0.007058245 -0.016883103 0.052869163 0.038657457 0.009636818 0.08308273 -0.05658233 0.02265187
0.021857692 0.031179009 -0.0022616372 -0.012884144 -0.018084617 -0.08323324 0.029385127 -0.054605644
0.0876183 -0.045620453 -0.070482865 0.059555143 -0.0850449 -0.013990081 -0.06171902 0.06972696
-0.002068209 0.027527506 -0.068133995 -0.0065224566 -0.02693526 -0.0751043 -0.014652732 0.0881749
0.040645413 -0.06609889 -0.02676621 0.06407597 0.09521021 0.049029183 0.059361286 0.07783272
-0.029352466 -0.059546918 0.044197243 0.008725654 -0.0112200305 -0.013908944 -0.02211958 0.027367907
-0.100747146 -0.060289346 -0.010721598 0.023208912 -0.00032651145 0.032274917 0.058584332 -0.05919776
0.00782552 0.08845754 -0.028267946 -0.053098705 -0.045503974 0.06924422 -0.0016395475 -0.06758251
-0.048772246 0.06772389 -0.06442329 -0.02478709 -0.028087744 0.05968223 -0.072670296 -0.018018676
0.037451025 -0.06340815 -0.032934286 0.053048708 0.06173518 0.06666565 -0.013748713 -0.010045166
0.003164873 0.019977244 -0.035018984 0.03418131 0.07844923 -0.056820612 -0.020052226 0.015496215
0.060221735 0.023865566 -0.062330306 0.047295786 0.057104528 0.016234612 0.013557398 0.07619607
0.013071928 0.0012041487 -0.07383425 0.06261971 -0.029646892 -0.04417658 0.040679414 -0.0012839743
0.060403667 -0.026264817 0.022560723 0.02164658 -0.031241251 0.050541684 -0.026857214 -0.070605196
-0.06496105 -0.067213275 0.045053657 0.06243947 -0.043057192 -0.05877112 -0.08775904 0.039799396
-0.02778526 0.044363525 -0.04016019 0.07596092 0.0063003004 -0.03508144 0.005430379 -0.05289311
-0.012103959 -0.05893609 0.040162858 -0.02199428 0.06893456 0.030825732 0.03583222 0.07526583
-0.047654413 0.06868257 -0.077236615 -0.02099699 -0.034108806 0.023409916 -0.045352522 0.040502347
-0.09472564 -0.026541747 -0.060814973 0.08067284 0.010146928 0.07257361 -0.06544075 -0.0006705582
0.0028464955 0.025934959 -0.08462502 0.013436351 0.0064730817 0.026599698 -0.00862142 0.052470498

net.4.weight f4 [256, 256]
00000000: 5e6c 4fbd 72c5 1b3d 0ea1 ccbc c8ca 90bd
00000010: 96bf ab3c 23c8 88bd 19a5 c43b dd2d 16bb
00000020: 540b 9c3c d667 dc3c c0ca d4ba 868e 59bd
00000030: 812a 11bd 7276 82bb 6e58 7d3d 658e 87bd
00000040: 3511 67bd 0ede 203d 0915 463d a456 acbc
00000050: 2909 91bd f80b ed3c 54a2 8e3c f882 5e3b
00000060: 8a60 54bc 795f 53bc 92a2 2d3d d94c 9e3b
00000070: 1567 89bb 1978 a1bc 28e1 47bd 7337 503d
00000080: e7e0 44bd 7eb8 81bd e09f 5a3d 5a9e 2ebd
00000090: 9038 98bb a154 8fbd e781 70bd 2755 93bc
000000a0: 0cb6 83bc ff31 a33c bc40 b6bc 8976 9c3c
000000b0: 567b 7bbd e832 d0bc 0229 5dbd 5b4a 18bb
000000c0: 5fca ad3c 8fba e53c def5 8fbd ccfe 563d
000000d0: d4ca 9c3b 13b4 283d ee8e d33c f0d2 34bd
000000e0: a0b0 953b d442 163d 17e1 043d ab09 2a3d
000000f0: e7e3 0bbd 98c8 7ebc 3c3c b9bc 29d0 4fbc
00000100: 6851 353c 4ce5 863c 80fa 363b acab 2d3d
00000110: ba1f 5dbd f218 d13c e7c5 df3c 97a2 66bd
00000120: 9428 303d e91e 4dbd a5f4 b73b e9b3 3cbd
00000130: 211d 1abd a42e 61bd e2a9 0dbb 757e 3e3d
00000140: 7716 eeba 6fcd af3c 1383 d7bc c667 51bd
00000150: 74fb d4bc ce0b e23b 3f54 0fbd b06d 05bd
00000160: 9190 2f3c 9d48 3d3d 542a 6fbd 531a 463d
00000170: cd0e 39bd 18a3 5e3d 6088 26bd cef6 983c
00000180: bb03 9bbc 54da 653c 1d4e 15bc 4eb6 a5bc
00000190: 99c5 87bc 1f2c 483d fd99 6d3c f730 6c3c
000001a0: fa04 cd3c 88cd 0cbc 18bc 0a3c 60ff fb3b
000001b0: 5d4c 0cbd 4ad8 11ba f552 9f3c 80e8 bb3b
000001c0: 7d52 76bd 386d 3bbd 20c4 283c d3df 3f3c
000001d0: 2f11 cd3c 98ab 1b3d bda3 d63b 7b14 02bd
000001e0: 42ce 1c3d 78f1 c1bc edc0 11bd 26a5 24bd
000001f0: f809 1fbc cf4a e8bb 7f75 49bd 6acf be3c
00000200: 16d9 b43c 3581 123d 3890 58bc 41d3 563c
00000210: f786 303c 038a 233d da8c 7cbd eb18 12bd
00000220: b65d 2e3d 4675 ef3c abd8 cf3b 17bd 07bd
00000230: 1246 9ebb afa2 62bc c33b 503c 525e 3bbd
00000240: f653 75bd c08e 3b3d c495 473d ff55 ccbc
00000250: c806 4bbd d342 28bd 0b14 3dbd 7c20 efbc
00000260: a0f0 66ba 7f35 4fbd a71b 85bd e649 54bd
00000270: acea 1bbc bed0 253d 9589 503d 8df8 493d
00000280: 10e2 a3bc 4144 6fbd 6d78 34bd 25ec 3f3d
00000290: 038a bcbc 63ca 403d e2a2 46bb fbf3 72bc
000002a0: 2643 e3bc 26b9 60bd a805 4dbd 6ee1 72bb
000002b0: 9b93 5abd fb49 863b 883e 673c 7c00 d2bc
000002c0: 4f28 88bd 0ad4 403d 2da2 723c 3ef4 ac3c
000002d0: f060 463d 6384 433d d497 663d 5702 853c
000002e0: 33e2 983c 6a6d 8e3c 60a0 79bd 95a2 293d
000002f0: 0b8c 25bd 68a4 1abd 503c 143c 3649 45bd
00000300: d821 a5bc a7d8 3a3b daaf 063d 1fde 09bd
00000310: 0578 673c 54e3 23bd 866b b43c a1bc cf3c
00000320: 11bb 8cbd 1069 84bc c67e 603b 9e9a 31bc
00000330: 7da5 85bd 062d 3bbd d11b 723b 598d 943c
00000340: ce4d c1bc acb9 203d 596f 55bd 4d0b 9b3b
00000350: aeb6 9ebc ceeb 28bd 508d e4bc ee39 8bbd
00000360: 63df a9ba 66ff fb39 f3d3 053d b334 283d
00000370: 3541 c1bc aacf 29bd 7cc2 89bc 112b 42bd
00000380: f6e1 dabb 2803 323d 50d6 9f3b 70e3 913c
00000390: f32d a03c 3a7e cebc f197 e4ba 2b19 043d
000003a0: 9b89 003d 0c72 6fbc 14bc 8e3c e7c6 fb3c
000003b0: 4130 87bd 2353 91bd cf36 97bd 2016 213b
000003c0: 1f2d 1a3d 7db5 6abd 36b3 383d ce66 42bc
000003d0: 95aa d0bb d68a c93a 6309 d2bc f44b 8cbd
000003e0: 2d53 debc 0eba 073d 6b2b a2bb 43d3 e3bc
000003f0: 069d 2d3d 5093 0d3c 5ce9 393d 6b1c 36bd
-0.050640456 0.038030095 -0.02497914 -0.070699275 0.020965379 -0.06678798 0.0060011265 -0.002291552
0.01904837 0.026904982 -0.0016234741 -0.053114437 -0.035440926 -0.003981405 0.06185191 -0.066189565
-0.056412894 0.039274268 0.048359904 -0.021037407 -0.07081825 0.028936371 0.017411388 0.0033952575
-0.01296247 -0.01290118 0.042391367 0.0048309383 -0.0041931965 -0.019710587 -0.04879871 0.05083413
-0.048066046 -0.06334017 0.053375125 -0.042631485 -0.0046454147 -0.069985636 -0.058717635 -0.01798494
-0.016078018 0.019921301 -0.022247665 0.01909949 -0.06139692 -0.025414899 -0.053994186 -0.0023237679
0.021214662 0.02804306 -0.07029317 0.052489087 0.004784921 0.041187357 0.02582499 -0.04414648
0.0045681745 0.036684826 0.032441225 0.041513126 -0.03415289 -0.015550755 -0.02261173 -0.012683907
0.011066772 0.01646676 0.0027920306 0.042400047 -0.053985335 0.02552459 0.027316047 -0.0563074
0.04300745 -0.050078306 0.0056138807 -0.046070013 -0.037625436 -0.05497612 -0.002161615 0.046507318
-0.0018164654 0.021460263 -0.026307618 -0.051124357 -0.025998808 0.00689838 -0.034992453 -0.03257531
0.01071562 0.046211828 -0.058389977 0.04836495 -0.04518013 0.054354757 -0.0406574 0.018672373
-0.018922677 0.014029104 -0.009112862 -0.020228531 -0.016573714 0.048870202 0.014502046 0.014415971
0.025026787 -0.008593924 0.008467697 0.007690355 -0.034252513 -0.00055635406 0.019448737 0.0057345033
-0.06013726 -0.045758456 0.010300666 0.011711079 0.025032608 0.03800544 0.006550281 -0.031757813
0.03828264 -0.023674712 -0.03558438 -0.04019656 -0.009706967 -0.007088996 -0.04918432 0.023292262
0.02207617 0.035767753 -0.013217978 0.01311189 0.010774366 0.03992654 -0.061657764 -0.035668295
0.04256984 0.029230725 0.0063429675 -0.033139315 -0.0048301304 -0.013832732 0.012709561 -0.045744248
-0.059894525 0.045790434 0.048726812 -0.02494335 -0.049567014 -0.041079354 -0.046161693 -0.029190294
-0.00088096596 -0.050588127 -0.06499415 -0.051828288 -0.009516399 0.040482275 0.05091246 0.049309302
-0.020005256 -0.0584147 -0.04406016 0.046856064 -0.023015028 0.04706801 -0.0030309488 -0.014828677
-0.02774198 -0.05486407 -0.050054222 -0.0037060636 -0.053363424 0.0040981746 0.01411403 -0.025634997
-0.06648313 0.047077216 0.0148091735 0.021112558 0.04843229 0.047733676 0.05629714 0.016236467
0.018662548 0.017386157 -0.06094396 0.041414816 -0.04041676 -0.037754446 0.009047583 -0.048165523
-0.02015774 0.0028510483 0.03288255 -0.033659097 0.014127736 -0.04001172 0.022023927 0.0253585
-0.068716176 -0.016163379 0.003425525 -0.010840086 -0.06525705 -0.045697235 0.003694285 0.018133806
-0.02359667 0.03923957 -0.052108143 0.004731572 -0.019374218 -0.041240506 -0.027899414 -0.067981586
-0.0012960251 0.00048064737 0.032672834 0.041065883 -0.023590663 -0.04145781 -0.01681637 -0.047404353
-0.0066797687 0.04346004 0.004877843 0.017808646 0.01955316 -0.025206674 -0.0017440302 0.032250565
0.03138123 -0.014614593 0.017423667 0.030734492 -0.066010006 -0.07095935 -0.07383501 0.0024579838
0.037640687 -0.057301987 0.045092784 -0.011865331 -0.006367991 0.0015376459 -0.025639242 -0.068504244
-0.02713927 0.03313642 -0.0049490235 -0.027810698 0.042386077 0.008641079 0.045388564 -0.044460695

net.4.bias f4 [256]
00000000: f3cf 713c 68a8 62bd 5322 0b3d fa42 453d
00000010: c2cb 263d 00d7 9a3b 55f9 babc adec f1bc
00000020: d6a3 903b e8c6 86bd 2b8c 24bd f9f7 623d
00000030: 9576 7ebd a2c8 2bbd 89b5 173d b116 5d39
00000040: e253 923c 75f8 8ebd 7a7b 2bbd e758 8abc
00000050: be90 453d 7d8b 45bd 2f7f 0a3d 2104 e93c
00000060: 7a8d a4bc d50f 79bc 59e7 febc 3e10 63bc
00000070: f823 38bc 233b 3fbd 3a1e 803d dafd cb3c
00000080: 55d7 d3bc 2662 073c c62c 2b3c 9dff ea3a
00000090: 704f 203c 9ae5 203c 3463 0abc 6ee1 2d3d
000000a0: e5f0 46bd 9773 9dbc 4756 2cbc 0098 78bc
000000b0: 38d5 f0bc 8699 e33a f52f 333d c602 2d3d
000000c0: 80d6 c2ba 5f85 8d3c 8032 203b abda 503c
000000d0: 922a 903c d38f f9bc 1ede a43c dc9d 18bd
000000e0: 0150 c43b 3628 803b 74e3 ffbb 019b 493c
000000f0: caf3 b53c dff9 65bc bec4 3d3d 4cb8 0d3d
00000100: eceb 7cbd 61bc 623d 7f87 d5bc 8a61 40bd
00000110: 26f3 c5bc 3f1d 7ebd db96 59bd a088 203d
00000120: d98f b1bc 6604 73bd d5e7 ed3c 5036 77bd
00000130: 9bac 863d 2944 a8bc 40af 053d 1166 893b
00000140: 621c d73b f196 373d e113 cdbc 7710 083b
00000150: 98a3 5c3c eac0 02bc 0cd7 6fbd 7b24 853d
00000160: 2286 28bd 3539 5cbd b45f 8abd 158e 16bd
00000170: 5e98 353d 62e2 d23c 4558 a2bd 8493 563d
00000180: 50c3 a5bc f991 6cbd 6ab1 35bc 605d 41bc
00000190: 255b aa3b ba7c 24bd 22ae f5bc 236d efbc
000001a0: b481 e0bc 15e0 533d 5c37 fbbc cdda 093c
000001b0: 13ad 183c baf9 0fbc 1381 dabc 9aae 00bd
000001c0: 6dd2 1e3d e239 84bd b655 64bd 8cc6 85bd
000001d0: 6acf babc 8044 713d 1727 b6bc 6718 5bbb
000001e0: 6c20 373d a2ae 073c 714b 8cbd a4a2 7cbd
000001f0: 20af f53c 582d 36bd eae0 803d fda6 f53c
00000200: afec 263d 372b e3bc c85e 923b fb72 cbbb
00000210: 950d d13c e576 86bc 784e 32bd b628 03bc
00000220: 0b2f 82bc b396 85bd 6e4c 4ebd f594 2d3d
00000230: 9a27 5e3c a6c0 5f3c 4f02 89bd ef53 543c
00000240: 8857 19bd 20d8 6d3c d8f9 5a3c ac97 81bb
00000250: d5f1 9e3c a671 8bbd 85f5 d53c 06d6 21bd
00000260: 7451 1dbc b281 90bc 9af2 c93c 635d 99bb
00000270: 65a6 cdbb f1b1 01bc 0dad 98bb d61e 92bc
00000280: 08eb 193d d540 b2bc 1067 663c 3b65 9cbc
00000290: 45d5 c33a c9d5 333d 963d 4bbd 3774 0ebd
000002a0: 2d71 803d 65a2 2abd 71ab 83bd 4477 b33c
000002b0: 9d21 0dbd 54d1 233d 2a07 77bd df4d 8e3d
000002c0: 3036 bc3c 82b6 3ebd 1d13 45bd fcfb 41bd
000002d0: 553f 84bb 8e4e 633c d568 433d 8966 91bc
000002e0: f5f8 6dbd 9cd6 073c 5eea 273c 5820 86bc
000002f0: 2424 42bb 1b30 483d e4db ee3a a1be 8bbb
00000300: 599d ecbc c078 023d 666e 85bd 6c2c f83c
00000310: cac7 323d 0377 27bd 141c 4f3d 0143 8f3d
00000320: 3df7 49bd ecf4 103d c28f 6fbd 08af 59bc
00000330: ffc1 afbc 7273 143d 19e8 75bc 3606 913c
00000340: fbfe ef3c 40c0 3cbd f266 393c cefa 36bd
00000350: baaa 8b3c 909c 6fbc 7159 793c 1c6f a6bc
00000360: a86f 533d 10f4 40bc 1782 49bd a412 afbb
00000370: e410 e4bb f1d7 d43c 975c a3bc a9f5 cbbb
00000380: eea2 48bc 8278 09bc 5f9c 993d 89b4 cf3c
00000390: 7bea 54bd 977b 6ebc eb67 93bd 6fc5 023d
000003a0: 2883 e1bc 107b 973b e92d cdbc ede0 503d
000003b0: 47f9 2e3d ce35 523c c0b0 ab3c 3697 4bbd
000003c0: d93f 59bd 23d6 593d 1c37 8abb 7c22 c63c
000003d0: 8792 863d c7c7 473c e8f5 293c 9abf 853d
000003e0: 6875 b9bc 5aa1 3ebd 80a3 36bd 8f87 093b
000003f0: ea24 63bd 4e25 b7bc f32c 10bd 420d 03bc
0.014759052 -0.055336386 0.03396828 0.048159577 0.040721662 0.004725337 -0.022823969 -0.029531801
0.004414062 -0.06580907 -0.040172737 0.055412266 -0.062124807 -0.041939385 0.03703836 0.00021084656
0.017862264 -0.06980983 -0.041865803 -0.016888095 0.04823374 -0.04822873 0.033812698 0.028444352
-0.020086993 -0.015201529 -0.031116175 -0.013858853 -0.011239044 -0.046687257 0.06255765 0.02490132
-0.025859514 0.0082631465 0.010447687 0.0017928962 0.009784564 0.009820366 -0.008446503 0.042451315
-0.04856958 -0.019220157 -0.010518617 -0.015172958 -0.029398546 0.0017364479 0.043746907 0.042238973
-0.0014864951 0.01727551 0.0024444163 0.012747447 0.017598424 -0.030464089 0.020125445 -0.03725992
0.0059909825 0.0039110435 -0.007809097 0.012305022 0.022210974 -0.014036625 0.046330206 0.034599587
-0.06174843 0.055355433 -0.026065586 -0.04696802 -0.024163794 -0.06203961 -0.053122383 0.039192796
-0.021675037 -0.059330367 0.02904121 -0.06035453 0.06575891 -0.020540314 0.032637835 0.0041930755
0.006564663 0.044821683 -0.025033893 0.0020761767 0.013466738 -0.007980565 -0.058554694 0.06501099
-0.041143544 -0.053765494 -0.06756535 -0.036756594 0.04433476 0.025742713 -0.07926992 0.052386776
-0.020234734 -0.057756398 -0.011089662 -0.0118020475 0.0051988536 -0.04015801 -0.02999026 -0.029226845
-0.027405597 0.051727373 -0.030666046 0.008413983 0.009318608 -0.008787567 -0.026672876 -0.031416513
0.038774896 -0.06456353 -0.055745803 -0.065320104 -0.02280398 0.058903217 -0.022235436 -0.0033431293
0.044708654 0.008281382 -0.06850327 -0.061678544 0.029990733 -0.044476837 0.06292899 0.029986853
0.040753063 -0.027730567 0.004466865 -0.006208775 0.025519172 -0.016414115 -0.043531865 -0.008005312
-0.015891572 -0.06522884 -0.050365858 0.042378385 0.013559246 0.013656771 -0.066898935 0.012959464
-0.037436992 0.01451686 0.013365231 -0.0039548483 0.019402424 -0.06808786 0.02611805 -0.03951075
-0.0096019395 -0.017639969 0.024651814 -0.004680322 -0.0062759393 -0.00791596 -0.004659301 -0.01783697
0.03757766 -0.02175943 0.014062658 -0.01909124 0.0014940879 0.043905053 -0.04961928 -0.0347788
0.062715866 -0.041658778 -0.06429184 0.021907456 -0.034455884 0.039994553 -0.060309567 0.069484465
0.022975057 -0.04656077 -0.04811393 -0.04735945 -0.00403587 0.013873709 0.047707397 -0.017749088
-0.058098752 0.008290913 0.010248749 -0.016372845 -0.0029623592 0.048874002 0.0018223491 -0.004264668
-0.028883623 0.031853437 -0.065151975 0.03029462 0.043647565 -0.040884983 0.050563887 0.06995202
-0.04930805 0.035389826 -0.058486708 -0.01328636 -0.02145481 0.03624291 -0.01500895 0.017703157
0.029296389 -0.04608178 0.011316048 -0.04467278 0.017049182 -0.01462473 0.015219078 -0.020316653
0.051620156 -0.011776939 -0.04919633 -0.0053427983 -0.0069600213 0.025981875 -0.019941611 -0.0062243533
-0.012245877 -0.008390548 0.075005285 0.02535464 -0.05198143 -0.014555833 -0.07197555 0.03192657
-0.02752836 0.0046228245 -0.025046306 0.050995756 0.0427182 0.012830211 0.020958304 -0.049704753
-0.053039405 0.053182732 -0.0042179953 0.024186365 0.065709166 0.012193627 0.01037357 0.06530686
-0.022638991 -0.046540596 -0.04458952 0.002098534 -0.055455126 -0.022356655 -0.035199117 -0.007998766

net.6.weight f4 [128, 256]
00000000: 9c13 9c3c c07f b33c f646 413d 4eaa 353d
00000010: c0b0 7d3c 60ad c5bb 4d39 a83c 2c0a f53c
00000020: 5ec4 433d 14e5 23bd c08c eaba a0ac 71bd
00000030: 00dc e03c 51c3 8fbd 302b 273d 3642 363d
00000040: 8cf2 c4bc 80cc 69bb 1c6c bf3c 8dc5 90bc
00000050: 362f 1ebd a498 63bd e8ac fd3c 00ff 25bc
00000060: 707b 173c 748b 19bd 6004 04bb 2c46 4dbd
00000070: 2ee9 8dbc bf33 b1bb d774 d23a 7443 8dbc
00000080: 54c2 c93c 8661 0f3d 6814 693d aaff 11bd
00000090: 8b75 46bd b029 123d c911 85bd acdc 963c
000000a0: a43a 293d ce85 303d 00d8 3439 2817 2a3d
000000b0: fe31 333d 904e 343c 5d9d 8e3c aa5d 7a3c
000000c0: 1af9 7dbd f8fd 7e3c 4c07 5b3d 60d3 e13b
000000d0: 3807 84bc 2a93 4ebd 0f12 cbbc 8209 1fbd
000000e0: 6efe 2e3d 26d2 303d f066 7cbc 0393 3b3c
000000f0: 2393 2f3d 84c4 8b3c f881 233c 2efd f13c
00000100: 80f8 953b c109 09bd 9048 633d e6f5 01bd
00000110: 1841 4c3d 7886 c43c 50fd f63c 18f2 cd3c
00000120: d87f 3cbd 1c8c 42bd 90f3 53bd 6066 4bbb
00000130: f9d8 fcbc 0028 e13a 2f11 333d 8027 cf3c
00000140: 7ebd 903b 3b88 103d 0003 ffbb 35ea 2abd
00000150: 0475 c0bc b02d cebc 8c9f febc 914e 95bd
00000160: 063d 13bd 0497 e2bc c06c c83b 08bd d13c
00000170: 48d6 efbc 7a0e 653d cc4a e6bc 6035 4d3d
00000180: 4496 71bd 0654 4b3d fc48 a33c 5262 febc
00000190: 7056 ad3b 7b20 203d d8f7 6abd 5019 233d
000001a0: 42f7 033d 5034 49bc a201 243d 3aee 2f3d
000001b0: d8cd 753c a964 c7bc b4ac c33c c59f 523d
000001c0: cc04 32bd 5eee 583d ecd2 3ebd c3e3 cabc
000001d0: c367 8fbd fbe1 073c a7b7 2e3d 111c 11bd
000001e0: 0166 f8bb 172e 38bd 0c98 253d f066 67bd
000001f0: 0001 1abc 0896 12bc 10ac 433c cdea ba3b
00000200: 5e42 593d b731 5ebd 3cd9 70bd 3092 4f3d
00000210: 6048 1e3c 4cb0 09bd 08dd 8fbc 87fd 543b
00000220: 7e46 0dbd e8fe 10bd 54f3 ba3c 4ad2 77bd
00000230: 10a7 123c 60b6 463d 780f f53c 0003 243c
00000240: b8dc c43c 3c87 d7bc fcf7 d93c 381e 9d3c
00000250: 8a31 39bd 5e66 51bd a270 773d 6c02 803c
00000260: d568 abbc 2c5a 083d 8ec7 8838 b021 e3bb
00000270: a50c 54bc 003f fabc 2ac8 3bbd 236e 06bd
00000280: 280d 37bd de78 443d f05c 52bc 8673 48bd
00000290: 0ce4 08bd 1388 5fbd ff31 33bd 008b 91bc
000002a0: 1a86 1bbd c04e 283b 2c40 63bd eda1 d6bc
000002b0: b884 21bd caac 313d 2c59 7ebd cc29 cf3c
000002c0: 38ef 41bd b0cb 9fbc 98ae 5cbd 4097 17bc
000002d0: 601b 4cbc 58a8 813c 60c8 e93c d222 00bd
000002e0: 1877 0d3d 4881 763d 5c97 f7b9 9492 4dbd
000002f0: c8e3 5a3d 2865 2a3c 68af 953c 2869 d63b
00000300: 50be 413c ec93 3bbd b097 71bd e80d 0a3c
00000310: 90b2 f93c cce3 f9bc 288f 3f3c 4b7f 92bd
00000320: 780e c83c 765b 53bc 4f8a 61bd 2c41 f73c
00000330: 58ea 79bd 7462 c7bc cb79 98bb a4f6 ec3c
00000340: ccff 74bd 488d debc 4222 7ebd 30f2 8fbc
00000350: ec8a 0bbd f60f 34bd f884 35bd 88db 2e3d
00000360: c8e6 0e3c 0e19 47bd acf7 67bd b87d 26bd
00000370: f029 15bc 4529 273c 484d 1dbc 736a 3bbc
00000380: 67e6 c03b 74f3 dd3c 1230 5ebd ff66 f1bc
00000390: f6f6 3c3d 740b 143d 5029 51bd 7527 cdbc
000003a0: 900f 9c3b bd76 cfbc f28c 943c bc4b 1ebd
000003b0: 08a9 343c 406a 413d 2506 4abd 7289 773d
000003c0: 80e3 4a3b b71c 493d b072 75bd 1847 9ebc
000003d0: 61ee 2d3d fa72 693d 6402 dbbc 8646 79bd
000003e0: 512d 1dbc 08e0 113d 6986 113c f47b 573d
000003f0: 0e7b 6e3d 44d5 1abd fdb6 3dbd 80d2 393d
0.01905232 0.021911502 0.047186814 0.04435187 0.015484035 -0.006032631 0.020535136 0.029912077
0.047794692 -0.040013388 -0.001789473 -0.05900252 0.027448654 -0.070196755 0.04081267 0.044496737
-0.024041437 -0.003567487 0.02336698 -0.017672325 -0.038619243 -0.05556549 0.030966237 -0.0101315975
0.009245738 -0.03748651 -0.002014421 -0.05011575 -0.017323103 -0.00540778 0.001605655 -0.017244078
0.024628796 0.035005115 0.056904227 -0.03564421 -0.04845194 0.035684288 -0.06497533 0.018415771
0.04131569 0.043096356 0.00017246604 0.04152599 0.04374885 0.011005059 0.017409021 0.01528112
-0.06200514 0.015563481 0.053473756 0.006891653 -0.016116723 -0.050433315 -0.024788884 -0.038827427
0.04272311 0.043169163 -0.015405402 0.011448625 0.04286493 0.01706148 0.009979717 0.02953967
0.0045767426 -0.033456568 0.055489123 -0.031728648 0.049866766 0.023989901 0.030150086 0.025139853
-0.04602036 -0.0474969 -0.05174595 -0.0031036362 -0.03086518 0.0017178059 0.04371756 0.02528739
0.0044171205 0.03528617 -0.00778234 -0.041727263 -0.023493297 -0.02516827 -0.031081937 -0.07290376
-0.03594687 -0.0276599 0.0061164796 0.025602832 -0.029276982 0.05592201 -0.028111838 0.05009973
-0.058981195 0.049640678 0.019932263 -0.031052742 0.005289845 0.039093476 -0.05736527 0.03981906
0.032218225 -0.012280539 0.04004062 0.0429518 0.01500269 -0.02433999 0.023886062 0.0514219
-0.043461606 0.0529617 -0.04658787 -0.024766808 -0.07002213 0.008293624 0.042655613 -0.035427157
-0.007580519 -0.04496583 0.040428206 -0.056494653 -0.0093996525 -0.008946903 0.011942878 0.00570426
0.05304181 -0.05424663 -0.05880092 0.050676525 0.00966081 -0.033615395 -0.01756145 0.0032499747
-0.034491055 -0.035399348 0.022821106 -0.06050328 0.008950964 0.04851377 0.029914603 0.010010481
0.024031028 -0.026309602 0.026607506 0.019179448 -0.04521326 -0.051123016 0.06041015 0.015626155
-0.020924011 0.03328912 6.522155e-05 -0.006931506 -0.012942468 -0.030547619 -0.04584519 -0.03281988
-0.04469028 0.04796683 -0.012839541 -0.048938297 -0.033420607 -0.05457313 -0.043748852 -0.017766476
-0.037969686 0.0025681704 -0.05548112 -0.02620026 -0.03943321 0.043377675 -0.06209676 0.025288485
-0.047347277 -0.019506305 -0.053877443 -0.009252369 -0.012457699 0.015827343 0.028537929 -0.031283207
0.034537405 0.060181886 -0.00047224283 -0.050188616 0.053439885 0.010400094 0.018272117 0.0065432973
0.011825159 -0.045795366 -0.05898255 0.008426167 0.030480653 -0.03050413 0.011691846 -0.071531855
0.024420962 -0.012900224 -0.055063542 0.030182444 -0.061014503 -0.024338938 -0.0046531907 0.028926201
-0.05981426 -0.027166978 -0.06204439 -0.017571539 -0.034068033 -0.043960534 -0.044316262 0.04268983
0.008722015 -0.04860788 -0.056632683 -0.04064724 -0.009104237 0.0102027105 -0.009600945 -0.011438954
0.005886841 0.027093627 -0.054245062 -0.029468058 0.046133958 0.036143735 -0.05106479 -0.025043229
0.0047625974 -0.025325174 0.018133614 -0.038646445 0.011026628 0.04722047 -0.049322266 0.060433812
0.0030958354 0.04909965 -0.059923828 -0.01932101 0.042463664 0.056994416 -0.026734538 -0.060858272
-0.009593324 0.035614043 0.008882144 0.052608445 0.058222823 -0.037801042 -0.04631709 0.045366764

net.6.bias f4 [128]
00000000: 404e 69bd 1497 873d fa6d 663b d579 22bc
00000010: 6096 8bbd a574 13bc b311 383d c8ed 92bd
00000020: 564f 0b3d 7c0d f23c 0eaf ee3c 28da 33bd
00000030: 104e 9f3c ac15 40bd adb5 8a3d 6f61 e83c
00000040: a752 3e3d f2be 27bd b315 a03d a16a b4bc
00000050: dcad 98bd b3bc 773d 2481 3abd 6436 733d
00000060: 1d4a b73d 3205 38bd ae2e 31bd 2bcb 0ebd
00000070: 8c51 fc3c ea78 84bc 76f6 103d b50c 60bd
00000080: 7a7d 26bd 0bc4 2f3d d3cb 913c c5f0 b63c
00000090: ebe3 e63b 8b47 27bb 9ca1 ae3b aac2 b03c
000000a0: 3220 a2bc f27c 223c d2b1 463d 2544 053d
000000b0: a22a 01bd efca 0dbd 9348 993c 2fc5 313d
000000c0: 96c0 cd3b ca93 65bd ffd4 7f3d fb66 5a3d
000000d0: cb1d 4e3d 18c2 35bd d6ac 293d 6910 b33c
000000e0: 6867 2bbd 8a0e 54bd 4190 0c3d b2ca ce3c
000000f0: e0ae 623b 7656 8f3d 777d 8ebd e7d6 463c
00000100: 1956 3a3d 0ead 6fbd ad1e 7ebd 77d3 613c
00000110: 2257 77bd a485 39bc 68dc 623d 0534 7fba
00000120: 5d0e af3d 4ff7 093d 0b45 29bd 3c0d 1e3d
00000130: 9418 ea3a 1f72 1b3d 22cc 86bb 713d 4cbd
00000140: 63b7 b13b 057f 65bd 0a90 79bd ed21 483d
00000150: 8613 1cbd baa1 1a3d 22c0 e33c 3ae8 05bd
00000160: a8e2 87bd 2cd8 37bc ba84 00bd 407b 10bd
00000170: fac0 0dbd 665d e33c e928 44bd 334b 27bd
00000180: 9339 f2bc f656 843c 5647 823d c59a 91bc
00000190: 4cc8 fe3c 26d2 a23c 3edb 4b3d 451d cbbc
000001a0: 70bb c2bc 76db 17bd 894b 5c3d 04f0 2ebd
000001b0: ecb2 7cbd ec3b b83c 5dfb 00bd f2b4 a83d
000001c0: bf85 823c 138b 8f3d 8881 183d 433e f33a
000001d0: 5c78 68bd 885b 33bb 0495 473c d42d 89bd
000001e0: 638d 3d3d 58a0 00bd be36 4abc 4b33 983d
000001f0: bf1a 6e3d c252 293d bdfb 27bd b4e8 343b
-0.05695939 0.06620613 0.0035160766 -0.009916742 -0.06815791 -0.008999978 0.044938754 -0.071742594
0.034011208 0.029547445 0.029136207 -0.043909222 0.019446403 -0.046895668 0.06772933 0.028366772
0.046465542 -0.040953584 0.07816639 -0.0220235 -0.07455036 0.060482692 -0.045533314 0.059378043
0.08949683 -0.04492683 -0.043257408 -0.034861725 0.030800603 -0.016170938 0.035391293 -0.05469962
-0.040647008 0.04291157 0.017797386 0.022331605 0.007046213 -0.002552482 0.005329324 0.021577198
-0.019790743 0.009917485 0.048509426 0.03253569 -0.0315348 -0.03461736 0.018711364 0.04340094
0.0062790615 -0.056049146 0.06245899 0.053320866 0.05032138 -0.044374555 0.041424595 0.02185841
-0.041846663 -0.051771678 0.03431726 0.025243137 0.0034589097 0.06998913 -0.06957524 0.012136198
0.045492265 -0.058514647 -0.062040973 0.013783327 -0.06038583 -0.011323366 0.055385977 -0.00097352295
0.085476615 0.033683117 -0.04132561 0.03858684 0.0017860108 0.03795063 -0.00411369 -0.049863283
0.0054234727 -0.05602934 -0.060928382 0.04886048 -0.038104557 0.03775189 0.027801577 -0.03269217
-0.06635028 -0.011220973 -0.031376578 -0.03527379 -0.034607865 0.027754497 -0.047890577 -0.0408432
-0.02956847 0.016154747 0.063612625 -0.017773995 0.031101368 0.019875597 0.049769633 -0.02479423
-0.023771018 -0.03707453 0.053782973 -0.042709365 -0.06169407 0.02248951 -0.03148972 0.082376376
0.015932916 0.07008948 0.037232906 0.0018557984 -0.05675541 -0.002736779 0.012181524 -0.06698194
0.046277415 -0.031402916 -0.012342153 0.07431658 0.058130976 0.04133869 -0.04101156 0.0027604522
